pytorch/tutorial/cifar_net.pth (torch, 251411 bytes, 10 tensors)

conv1.weight f4 [6, 3, 5, 5]
000000 ec 2f 2d 3d 7a ff 17 be f6 6c 3b 3d 2b 8b 36 bd
       0.04228203 -0.1484355 0.04575821 -0.044566315
000010 78 5a 58 bd 3a a6 c0 bd 04 53 c9 bd 15 7b 47 3d
       -0.052820653 -0.09406705 -0.09830287 0.048701365
000020 ba e4 22 bd 7d 43 5e bd 5f 04 d5 bd a0 52 b2 be
       -0.039768912 -0.05426358 -0.10401224 -0.34828663
000030 24 f7 66 be e4 51 2f be 80 e6 7e be eb 82 55 bc
       -0.22555214 -0.17121083 -0.24892616 -0.013031702
000040 c7 e7 8a be 38 6d a0 be 8a d2 90 be e6 97 8c be
       -0.27129957 -0.31333327 -0.2828563 -0.2745964
000050 69 35 22 be 0f a1 30 be fd e1 f1 bd 4c c0 4a be
       -0.15840687 -0.17248939 -0.11810682 -0.19799918
000060 36 ee 95 bd a5 ad fe 3d b4 be 32 3e a9 d4 5e 3e
       -0.07320826 0.12435464 0.1745556 0.21760811
000070 9e d2 22 3e 41 bd 03 3d ca a8 74 3d c4 7d 96 3c
       0.15900657 0.03216291 0.059731282 0.018370517
000080 55 36 cb 3d a9 5e ad 3d 46 7b 18 3e 5d 33 04 be
       0.099224724 0.084653206 0.14890775 -0.12910219
000090 30 5a 66 be 2b f8 86 be fb 44 77 be e3 fb 8b bd
       -0.22495341 -0.26361212 -0.24147408 -0.06835153
0000a0 e1 20 ac bd 09 34 4b be 0d 39 85 bd 02 ae db 3c
       -0.08404709 -0.19844069 -0.06505022 0.026816372
0000b0 7f cd 13 bd 84 8f 2d bd a0 f6 37 bc f8 be 34 be
       -0.03608465 -0.042373195 -0.011228234 -0.17650974
0000c0 3d d2 9f 3d 44 fe 9f 3d 5f 83 02 bc 39 9f 49 3e
       0.07803772 0.07812169 -0.007965892 0.19689645
0000d0 04 96 38 3e 0b c6 b2 3e e7 b9 4d 3e 23 73 4a 3e
       0.18025976 0.3491672 0.20090447 0.19770484
0000e0 5a ff b1 3e 23 70 82 3e d0 17 94 3e 5a ed 9f 3e
       0.3476513 0.2547618 0.28924417 0.31235772
0000f0 02 f5 13 3e 5a c5 a0 3d 9c f9 9a bd 5b 6c 14 3e
       0.14448932 0.07850142 -0.075671405 0.1449446
000100 29 df ca 3a a2 ca 04 3e 3d eb 10 3e 4f 68 27 3d
       0.0015477884 0.12967923 0.14152236 0.04087096
000110 17 38 b3 39 df 71 80 3d 39 1a a3 3d 1b fc 1f 3e
       0.0003418333 0.06271719 0.07963986 0.15623514
000120 fe 4a a5 3d 4c 2d 5c 3e 1a 2c 83 3e 08 7a 98 3e
       0.08070944 0.21501654 0.25619584 0.29780602
000130 18 e3 7a 3d 4f ba 1e 3c 4e 15 47 3d f0 6d 52 3d
       0.06125173 0.009687974 0.048604302 0.051374376
000140 45 19 ce 3e e7 bd ad be f4 4e 16 be ce 7c b2 3e
       0.40253654 -0.33933946 -0.14678556 0.34860843
000150 01 69 b9 3c f4 b5 98 3e 45 ed 05 bf ce 68 b3 be
       0.022633078 0.2982632 -0.5231517 -0.35040897
000160 3f 19 fa 3e 30 08 f9 3d 12 c0 8d 3e 09 db 85 be
       0.48847386 0.12159765 0.276856 -0.26143673
000170 20 2f e8 be 7d 58 a3 3e 22 b7 99 3e 24 f9 71 3e
       -0.45348454 0.3190345 0.30022532 0.23630196
000180 f9 3f 05 be 7e c7 2a be 22 7c 05 3d 94 82 d5 3d
       -0.13012685 -0.16677663 0.032589085 0.104252964
000190 78 34 04 3c 5f fb c7 be b4 49 63 be 16 6e 5e bc
       0.00806915 -0.39058968 -0.22196084 -0.013576051
0001a0 7a 6b 26 bc 8f a3 bd 3d 5b ff 15 bf 10 b9 b7 be
       -0.01015746 0.09259712 -0.58592767 -0.3588338
0001b0 14 74 76 3e 57 9a 3c 3e 5c 8a 5d 3e fa bd 3b bf
       0.24067718 0.18418251 0.21634811 -0.73336756
0001c0 30 11 b0 be 75 31 ff 3e 01 f4 9d 3e 19 c1 a5 3e
       -0.34388113 0.4984242 0.30850223 0.32373884
0001d0 77 78 e3 be 73 71 fb be 78 6d 59 3e 5d 9a 6a 3e
       -0.44427845 -0.49109992 0.21233165 0.22910447
0001e0 24 e0 9d 3e d7 10 80 be d1 a5 d1 be 89 8c 34 3d
       0.30835068 -0.25012848 -0.4094682 0.044079337
0001f0 cf d9 13 3e 23 d6 25 bc 62 b3 29 be 29 0a 17 be
       0.14438556 -0.010121855 -0.16572335 -0.1474997
000200 8f 35 13 3e b3 4d 15 bc 85 2f 81 3e 1e 3a f0 be
       0.143759 -0.009112763 0.25231567 -0.4691934
000210 6c 13 84 be 14 12 ee 3e 9d 8e c2 3c 25 ba b5 3e
       -0.25796068 0.46498168 0.023749644 0.3549358
000220 3d 61 fd be 44 e9 57 be 9f d4 a8 3e 9f e3 09 3e
       -0.4948825 -0.21085078 0.32974717 0.13465737
000230 98 75 67 3e 6b c4 ba be e5 e5 c4 be 80 24 cb 3e
       0.22603452 -0.3647798 -0.38456646 0.39676285
000240 05 f6 1d 3e 1e b6 a4 3e 75 35 54 be 87 73 51 be
       0.1542588 0.32170194 -0.20723517 -0.20454226
000250 a3 7c 11 3c aa 11 e3 3d a6 1f 24 3e 8f b6 8d 3e
       0.008879813 0.110873535 0.16027698 0.27678344
000260 11 b9 eb 3e 6c d5 95 3e a5 24 a7 3e cf 05 73 3e
       0.46039632 0.2926439 0.32645145 0.23732685
000270 f1 72 b8 3e 2f a7 19 3f 4f 8e 00 3f a0 45 52 3e
       0.36025193 0.60020727 0.50217146 0.20534372
000280 ca d2 d3 3d 55 7e a1 3e f6 65 9d 3e 35 49 37 3d
       0.10342939 0.31541696 0.30741853 0.04474755
000290 94 39 01 be d3 98 02 3c a1 15 3f bd 7d 4f 74 bd
       -0.1261962 0.007971006 -0.046651486 -0.05964612
0002a0 2d 16 dd 3c f6 c0 73 be 02 23 af be 57 c8 98 be
       0.026988113 -0.23804078 -0.34206396 -0.29840347
0002b0 92 5d ad be e0 4a 64 be c2 26 cb be f5 3d 04 be
       -0.3386045 -0.22294188 -0.39678007 -0.1291426
0002c0 5a a0 24 be 1d 35 db bd 0c d2 43 3d 14 92 a9 3d
       -0.16076794 -0.1070349 0.04780774 0.08279815
0002d0 8f 9b 29 3d ff 28 0d 3d c1 40 ca 3d f2 25 de 3d
       0.041408118 0.034462925 0.09875632 0.10847081
0002e0 85 50 ab b9 0c 07 ba 3d 90 44 1d be 33 50 60 be
       -0.00032675653 0.09083375 -0.15358186 -0.21905594
0002f0 5a fa 41 be f7 5a 58 be 65 af 4d bd 65 79 fe bd
       -0.18943158 -0.2112845 -0.050216097 -0.12425498
000300 ec ef 1b be ef 1a 92 be 81 9a 24 be 75 c3 d8 bd
       -0.15228242 -0.28536174 -0.16074564 -0.105841555
000310 34 13 df bd 61 d5 45 be c8 9b e8 bc 06 74 fb bd
       -0.108923346 -0.19319679 -0.028394595 -0.12277989
000320 91 02 1d be 43 d7 8a be a4 a4 95 be 17 ba 4c bd
       -0.1533301 -0.27117357 -0.29227173 -0.049982157
000330 71 85 bd 3d 33 a9 cb 3b 97 87 14 bd a7 28 21 bd
       0.092539676 0.0062152385 -0.03626212 -0.03934541
000340 ed a2 ba bd 1d 76 3b 3d f8 27 1b 3e bb 4a 86 3d
       -0.09113107 0.04576694 0.15151966 0.065572225
000350 70 50 6e be b4 09 83 be 7e 99 df bd dd 8d 1c 3e
       -0.23272872 -0.2559334 -0.10917948 0.15288492
000360 50 83 40 3d 1e 72 82 3c d5 7e be bc e6 9c 30 3e
       0.04700023 0.015923556 -0.023253838 0.17247352
000370 11 bf 66 3e fa c7 f8 3d ad 0b ab bd 15 18 f9 3d
       0.22533824 0.121475175 -0.08351836 0.121627964
000380 56 8d 1a 3e ec ec 07 be fa c7 13 be 7f 8d 1c bc
       0.15092978 -0.13273972 -0.14431754 -0.00955522
000390 ee d9 b2 bd 96 9d 27 bc 43 f5 71 bd 92 59 b0 bc
       -0.08732973 -0.0102304425 -0.05907179 -0.021527085
0003a0 1e 9d 91 3c 8b 2c 88 3d 71 3b 88 bd fa 6f 23 bd
       0.017775115 0.06649121 -0.066519625 -0.03990171
0003b0 2f c7 72 3b 73 d8 c7 3d 6f ff f0 3d fe a8 69 3d
       0.0037044992 0.09758081 0.1176747 0.05704593
0003c0 44 05 95 3d 38 92 ef 3c f4 96 6f 3e d4 14 ea 3d
       0.07276395 0.029244527 0.23397428 0.11429754
0003d0 84 a5 ef 3d d7 d5 bf 3d 15 38 e1 3d 04 90 57 3e
       0.117014915 0.093669586 0.10997025 0.21051031
0003e0 2d b7 82 3e 9e 92 84 3d 38 b1 8d be 13 7c 7b bd
       0.25530377 0.064732775 -0.2767427 -0.061397623
0003f0 ed 9b 00 bc a8 32 df 3b 0b be 1e bd 42 eb 29 be
       -0.007849676 0.0068114586 -0.038755458 -0.1659365

conv1.bias f4 [6]
000000 77 88 78 3e 48 e9 8e be de 0b 29 bf 3b e1 e3 3c
       0.24270807 -0.27912354 -0.6603373 0.02781736
000010 1c f7 28 be 3b bf bf 3e
       -0.16500515 0.37450585

conv2.weight f4 [16, 6, 5, 5]
000000 de 7a 67 bd 61 bb 04 bc c9 82 8b bd 6a e2 cc 3c
       -0.05651366 -0.008101315 -0.06812055 0.025010306
000010 9e 23 7c bc 3e ed 99 bd 2a b6 f6 ba 5b c1 70 3d
       -0.015389351 -0.075159535 -0.00188226 0.05877815
000020 c5 08 c2 3d 08 a9 0b 3c 44 46 b7 bd 36 e5 b0 3c
       0.09474329 0.008524187 -0.08948949 0.021593671
000030 bb 65 1f 3e dc 43 b6 3b d6 be 40 be 78 ae d0 bc
       0.15566151 0.0055622887 -0.18822798 -0.025473818
000040 01 f0 3b 3e 8a 52 09 3e d3 1b 5b bc a8 12 7d be
       0.18353273 0.13410392 -0.013373333 -0.24714148
000050 c6 a8 23 3e 47 d9 8e 3d 65 74 30 be 4b 3b 24 be
       0.1598235 0.06975036 -0.17231901 -0.16038243
000060 9d 6c a8 bc 1d 84 52 bd 82 eb 43 3d 96 8e c7 3d
       -0.020559603 -0.051395524 0.04783202 0.09743993
000070 0a e8 2f bd 6a 80 0f be 3a d0 09 3d 30 0e 05 3e
       -0.0429459 -0.1401383 0.033645846 0.12993693
000080 55 b5 77 bd 23 ee e0 bd 82 19 2c 3e 36 81 79 3d
       -0.060475666 -0.10982921 0.16806605 0.06091424
000090 cc 7f c4 bd ba 1d 76 be 4d bf 88 3d 54 4d 9b 3e
       -0.09594688 -0.24034777 0.06677113 0.30332434
0000a0 7a fb c4 ba 03 79 82 be 40 6b 3e 3d e8 5d 75 3e
       -0.0015028559 -0.2548295 0.046489 0.23961604
0000b0 14 92 3d bd ff 07 5d be 1f 49 e0 3d 92 45 d0 3d
       -0.04628189 -0.21585082 0.10951447 0.101695195
0000c0 65 f9 13 be ad f0 7f be 23 3d 8e bd 98 35 98 bd
       -0.14450605 -0.24994154 -0.06945255 -0.07432097
0000d0 71 ae bf bd 7b b4 a4 3d 96 ca 14 3e e1 e8 1f be
       -0.09359444 0.080422364 0.14530405 -0.1561618
0000e0 59 28 3f be f2 cc f9 3d e0 51 59 3e d4 9c f3 bd
       -0.18667735 0.12197293 0.21222639 -0.11895147
0000f0 31 26 47 be 0b 08 11 3e f0 7f 67 3e a7 9f 06 bc
       -0.19448163 0.14163224 0.22607398 -0.008216775
000100 52 c7 53 be 27 29 9e 3d f6 2c f7 3d 39 c5 4c 3d
       -0.20681503 0.07722693 0.120691225 0.049992774
000110 52 2f 4d be f3 6c e1 bd 43 93 21 3e 94 e1 d9 bd
       -0.20037583 -0.110071085 0.15778832 -0.10638729
000120 67 82 0a be 45 d5 06 bd 48 4b 3b bd ed f9 32 bd
       -0.13526307 -0.032918233 -0.04572609 -0.04369538
000130 96 8f 4e 3d e7 ca f0 bd 8c 4d e6 bd 4b 4a 0a be
       0.050429903 -0.117574506 -0.1124526 -0.13504903
000140 82 c1 c2 bd 66 7b c6 bd 8b 04 6b bb 1b da ea bd
       -0.09509565 -0.09691505 -0.0035860862 -0.114673816
000150 85 6e 02 be 02 79 20 bd 3f 46 61 ba f2 b5 26 bc
       -0.12737472 -0.039177902 -0.00085935363 -0.010175215
000160 ab 17 c2 bd dd c4 dd bd dc ba f5 3d f8 f8 87 bd
       -0.094771706 -0.10828564 0.11998531 -0.06639284
000170 9b 26 36 be 37 04 0f be 68 8c 9f 3d 0d 2b 4e bd
       -0.17788164 -0.13966452 0.07790452 -0.050334025
000180 79 8b 20 bd f8 de 06 3d fc c4 e4 3d d7 f0 27 3d
       -0.03919551 0.032927483 0.11170384 0.041001167
000190 a7 ea a4 bd 6b 4f 95 bc 5c 8c 22 3d 9b 4f 59 3b
       -0.08052569 -0.018226346 0.03968464 0.003315902
0001a0 70 72 6c bb 55 fe 34 bc eb 3d dd bb 43 46 c5 bd
       -0.0036078952 -0.011046966 -0.006751766 -0.09632542
0001b0 90 2f 50 bc cb 00 b3 3d da 72 9c bc 32 22 cf bc
       -0.012706652 0.087403856 -0.019097734 -0.02528486
0001c0 71 04 d3 bd 56 e1 2d 3e 5d 70 50 3e 9f 87 7a be
       -0.103035815 0.1698049 0.20355363 -0.24465798
0001d0 dc 7b 8b bd 1d 93 4e 3e 9a ce 89 3e bc 00 f1 bd
       -0.06810734 0.20173307 0.26915437 -0.11767718
0001e0 02 30 13 3e cb 91 b5 3d 75 27 ff 3d aa c3 c4 bd
       0.14373782 0.088656984 0.12458698 -0.096076325
0001f0 1c 8a 1c be 40 8c fc 3d c3 21 1f 3e d5 87 4a bd
       -0.1528706 0.12331438 0.15540223 -0.049445946
000200 d2 af 28 3e 84 0e 41 bd 11 63 0e 3e 47 9e 89 bc
       0.1647332 -0.047132984 0.13904978 -0.016799105
000210 e8 75 f4 3d 5b ec c8 3d a2 42 3f be 29 08 36 3d
       0.11936551 0.09810706 -0.18677762 0.044441376
000220 32 58 e1 3d 6e a1 34 bc 20 5b 91 be 4e a2 18 3c
       0.1100315 -0.011024816 -0.28389835 0.00931604
000230 06 03 b4 3d 47 75 ed bd ec 36 c4 be 1d a5 68 bd
       0.08789639 -0.115946345 -0.38323152 -0.05679809
000240 a0 35 70 3e fa 45 e5 bd 10 1c 62 be 6b 49 8b bd
       0.23457956 -0.111949876 -0.22081017 -0.06801113
000250 01 bc bf 3d a5 ee 28 3d a6 42 23 bd 8d 57 05 3e
       0.09362031 0.041243214 -0.039858483 0.13021679
000260 c2 d9 31 bd 57 18 ce 3b bc ac a5 3d 74 0b 43 3d
       -0.04342056 0.0062895226 0.08089587 0.047618344
000270 dc bc 99 3d 87 b8 45 bc c6 bb 02 bd 5b 9e 12 3d
       0.07506725 -0.0120679205 -0.031917356 0.03579555
000280 cd 40 94 3c 42 66 04 3e d8 5e eb 3d d9 b8 ae ba
       0.018097306 0.12929633 0.114926994 -0.0013330235
000290 a0 f0 a7 bc e2 cc 0f 3d c6 9c 0f 3e ba 17 3c 3e
       -0.020500481 0.0351075 0.14024648 0.18368426
0002a0 33 f1 c8 bd 6a af 15 be 55 52 ee bd 7f ec 6a bd
       -0.0981163 -0.14617696 -0.11636797 -0.057354447
0002b0 e3 37 d0 bc 52 c1 de bb c9 6b 52 be 60 cd 71 3e
       -0.025417274 -0.006797948 -0.2054893 0.236135
0002c0 ba f6 bc 3c 11 00 3d 3e a2 1b 55 3e 0d fa 04 3e
       0.023066867 0.18457057 0.20811322 0.12986012
0002d0 0b 20 78 3e 25 5d 18 3e 41 ad 98 3d dc 52 af 3d
       0.24230973 0.14879282 0.074549206 0.08560726
0002e0 cf 1b a2 3d 3f f5 89 3e 73 04 40 3e 43 de 73 3d
       0.0791546 0.2694492 0.18751697 0.059538137
0002f0 30 71 fb bc f9 12 0f 3d 57 2a 20 3c 24 50 e6 bc
       -0.03069362 0.034930203 0.00977572 -0.028114386
000300 27 4e 8d 3d d4 d7 49 bd c0 fe 90 3c a7 1d cc bc
       0.06899672 -0.049278095 0.0176996 -0.024916483
000310 46 6e 0a be 0c 4e 69 3d 1b 3e cf 3d e7 c7 30 be
       -0.13518628 0.056959197 0.101192676 -0.17263757
000320 bd d8 13 3e 02 45 f7 3c 27 85 14 be 22 0d 0b be
       0.14438148 0.030184273 -0.14503919 -0.13579229
000330 a7 1e 17 be e0 de bc 3d 09 69 82 bd a6 dd cf bd
       -0.14757787 0.092221975 -0.0636769 -0.10149698
000340 b7 cd fe bd 49 eb 35 be 76 9a 9a bd 1a bc c0 bd
       -0.12441581 -0.17765535 -0.07548992 -0.094108775
000350 22 96 57 bd e3 c1 45 be fc f8 36 be 81 d8 6b bb
       -0.052633412 -0.19312243 -0.17868418 -0.00359872
000360 9d 11 8f bd ae 3e 54 bd 11 74 a7 3c 0a 4a d9 bd
       -0.06985781 -0.05181759 0.020441087 -0.10609825
000370 f6 d3 9b bd 8b 3e 0a bd 8a ab 1a bc ec 8b 29 be
       -0.07608788 -0.033751052 -0.009440312 -0.16557282
000380 b8 1f 10 be 6f 1b 39 3a 52 6c 9f bd 17 af c6 bd
       -0.140746 0.0007061278 -0.07784332 -0.097013645
000390 3e ec 3a bc 2f f8 a0 bd 41 19 97 bc 92 a7 ae bd
       -0.011408864 -0.07859837 -0.01844466 -0.08528055
0003a0 16 fd 7c bd c3 84 3f bc 60 91 e8 3c 56 47 a7 bd
       -0.0617648 -0.011689368 0.028389633 -0.08167903
0003b0 93 6a f0 bc 0b 31 7c 3c 58 22 d9 3c 00 f3 c3 bd
       -0.029347694 0.015392552 0.026505634 -0.09567833
0003c0 ae d4 07 3b e8 4b a5 3d 5f 00 18 bd b5 72 c3 3c
       0.0020726132 0.080711186 -0.03710973 0.023858408
0003d0 cc c9 0b bd 12 d3 f0 bb c9 bc 51 bd a3 10 34 3d
       -0.034127995 -0.0073493803 -0.05120543 0.04396118
0003e0 c0 79 72 3d d0 11 b1 bd 7a 5a c5 3c d5 a7 e4 3d
       0.05919814 -0.086459756 0.024090994 0.11164824
0003f0 cc 8d c9 3d 95 89 ed bd c5 d8 a1 bc a9 e5 30 bd
       0.09841499 -0.11598507 -0.019756684 -0.04318777

conv2.bias f4 [16]
000000 f7 f6 8b 3b 07 1c da bd c8 0b 34 3d 8e 97 26 3e
       0.004271384 -0.10649877 0.043956548 0.16268751
000010 50 66 bb bd 7d 99 b0 be 83 14 16 3e 05 6c 3e bd
       -0.09150374 -0.34492102 0.14656262 -0.046489734
000020 7d b1 ee 3e 34 c5 2a 3f 27 d2 d9 bd ec 95 07 bf
       0.46619788 0.6670716 -0.106357865 -0.5296314
000030 33 7c 72 bd 2d d2 b3 3e 0a 81 f5 be 00 7e 0f 3f
       -0.059200477 0.3512129 -0.47950011 0.56051636

fc1.weight f4 [120, 400]
000000 45 10 23 bc 1d db e2 3c 52 c7 2f 3d e3 d3 9c bc
       -0.009952609 0.027692372 0.042914696 -0.019144004
000010 44 90 55 bd 5d 43 89 3d 2a 32 38 3c 4e 90 37 bd
       -0.052139536 0.06702302 0.011242429 -0.044815354
000020 33 c0 66 bd 29 6b 8b 3a 29 06 18 3d bb 32 c0 bc
       -0.05633564 0.0010636795 0.03711525 -0.02346169
000030 82 18 09 bd 5d 53 53 bc df a7 fb 3c 63 4a 8e 3d
       -0.033470638 -0.012898293 0.030719696 0.06947782
000040 4c 3a 5f 3d df 75 e7 3c da 9a b9 bc 75 80 fd 3c
       0.054498956 0.028254448 -0.022656847 0.030945042
000050 e2 d8 ba bb 2f 2e 39 3d 45 c0 8b 3d 7c 14 09 3d
       -0.005702124 0.04521006 0.06823782 0.0334668
000060 da 28 7f 3a 1f dc 86 bd 2b e2 0a bd f2 58 4a ba
       0.00097335654 -0.065849535 -0.033907097 -0.00077189424
000070 d9 5d a4 bc 56 68 c2 3c fe 96 4b 3c 55 07 3c 3d
       -0.020064281 0.023731392 0.012426136 0.04590543
000080 d8 13 0e 3d 6b c8 3e bc bf ba f4 3c 3a 12 d1 3b
       0.034686893 -0.011644463 0.029874204 0.0063803466
000090 b2 09 5a bc d3 ee 09 bc b6 5f 84 3d 26 a9 0e 3d
       -0.013307976 -0.008418757 0.06463568 0.03482928
0000a0 56 ae 00 bd df 46 73 3b c4 a6 b1 3c 40 73 c5 3c
       -0.03141626 0.00371211 0.021685965 0.024102807
0000b0 73 e0 34 3d a9 3a fa ba 47 88 bf bc 99 75 77 3d
       0.044159364 -0.0019090968 -0.023380412 0.060414884
0000c0 96 4d 40 3d b3 90 cc 3c 4f 93 ad bb 4b ba be bb
       0.04694899 0.024971342 -0.0052971016 -0.0058205477
0000d0 c9 1e 06 bd c4 d9 b4 bb ac 6f 55 3d 37 0c 98 bc
       -0.032744203 -0.0055191237 0.05210845 -0.018560512
0000e0 46 f4 49 bb a0 22 7b bd df d0 35 bd 77 4d 80 3d
       -0.0030815764 -0.061312318 -0.044388648 0.06264775
0000f0 74 0f a9 3b 31 9d e8 bc ad 4e 04 bd 8d 3b 30 bd
       0.005159313 -0.028395267 -0.032301594 -0.043025542
000100 56 72 d1 3c 4f 02 95 3d 89 9c 96 3c 40 db e0 bc
       0.025567215 0.07275831 0.018385189 -0.027448297
000110 48 78 a0 bc 9e 7e bb bc 72 42 95 bc 15 ad 58 3c
       -0.019588605 -0.022887524 -0.01822016 0.01322486
000120 97 56 93 3c 29 3d 7b bd 29 73 28 bd fc cb 3d 3d
       0.017985625 -0.061337624 -0.04112545 0.046337113
000130 cd e0 41 bd 17 eb 97 bd 62 14 2f bd 20 e0 01 3d
       -0.047333527 -0.07417887 -0.042744048 0.031707883
000140 4d 3b 01 3b 34 3c 0c bd 25 1d fe bc 0c eb 8b bd
       0.0019719184 -0.0342371 -0.031019757 -0.06831941
000150 45 00 57 3d d4 6d 4b 3c f5 92 6e 3d fe 25 5b 3d
       0.05249049 0.012416322 0.058245618 0.05350303
000160 1e 73 13 bd a7 d3 b6 bc 45 59 82 3c 9f 23 29 3d
       -0.035998456 -0.02231772 0.015911708 0.041293737
000170 f0 a0 32 3d 60 8c dd bc e7 de e8 ba 7e e4 8b 3b
       0.043610513 -0.027044475 -0.0017766625 0.0042691818
000180 a8 c7 e7 bc 9f fe 94 bd ee 9f 18 bd 97 34 56 3c
       -0.028293446 -0.072751276 -0.037261896 0.013074062
000190 d3 9a 0e 3e 78 51 6b 3d ac 4d 63 3d b8 42 b0 bc
       0.13926248 0.05745074 0.055493996 -0.021516189
0001a0 16 1c 7e bc 02 42 ca 3d 45 5d ca 3c af 99 84 3c
       -0.015509626 0.09875871 0.024702678 0.016186563
0001b0 ee 9b a8 3d cb e4 0b bc 84 71 5e bc 98 3b 60 3d
       0.08232866 -0.008538435 -0.013576869 0.054744333
0001c0 1e 48 7e bc cb 17 71 3d 83 9b 83 3c 47 71 a8 3d
       -0.015520124 0.05886058 0.016065365 0.08224731
0001d0 0e 72 9c bc 66 2c 79 bd 46 14 a4 3c 87 98 65 3d
       -0.019097354 -0.060833357 0.020029198 0.056053665
0001e0 52 88 cf 3c 6f 2f 01 3d 22 c9 23 3b cd 83 64 bc
       0.025333557 0.031539377 0.002499171 -0.013947439
0001f0 48 27 d5 3c f5 e4 96 3c 91 3c eb bb 44 2e 70 3d
       0.026019707 0.018419722 -0.007178851 0.058637872
000200 8e 79 ed 3b 5d ce 5a bc 43 e2 b5 3c 99 1e b7 bc
       0.0072471565 -0.013354865 0.022202617 -0.022353457
000210 c1 15 95 bd f1 39 17 bc 10 73 f2 3c 2c a7 52 3c
       -0.0727954 -0.009230123 0.029595882 0.01285724
000220 e9 88 cd bc 47 bf 52 3b 7d ad c1 3b c2 88 5f 3c
       -0.025089698 0.0032157467 0.005910574 0.013643445
000230 9f 80 11 bd 99 40 93 3c ee 12 ad 3b 1a 62 1d 3d
       -0.035523053 0.017975139 0.0052817976 0.038423635
000240 e5 55 48 3c ec 0f 40 bc 1e 59 57 3c 8c af 1c bd
       0.01222751 -0.011722546 0.013143806 -0.038253352
000250 bc ea 1a 3c 87 25 e9 3a e2 39 97 3d 6d c3 fb 3c
       0.009455379 0.0017787673 0.07384087 0.030732835
000260 67 60 6e 3d 85 95 3a 3c b0 cb e3 3c 0b ab 89 3d
       0.058197405 0.011388187 0.027807087 0.06722077
000270 65 0c b7 bc e8 48 a2 bd db c1 20 bd 9a 0a 2d bd
       -0.022344777 -0.07924062 -0.039247375 -0.04224644
000280 a1 ce 0f 3c cc cd 17 bd 72 60 12 bd b5 5e 17 bd
       0.0087772915 -0.037061498 -0.03573651 -0.036955554
000290 cd 01 82 bc 3d 33 8e 3d 22 a6 95 3b 6c 04 d4 3c
       -0.01587 0.06943367 0.0045669237 0.025881015
0002a0 99 ec a6 bc f5 13 f8 bc af 5e 5a 3d fd d0 b7 3c
       -0.02037649 -0.030282954 0.053312954 0.02243852
0002b0 c0 3c 83 3d 4d 3c dc 3c 02 bd 8e 39 2f 59 8c 3d
       0.064080715 0.026884222 0.00027225172 0.06852948
0002c0 53 4e 81 3d f8 ef 2a 3c 4e 8b 4d bc 7f 2d 8d 3c
       0.06313767 0.01043319 -0.01254542 0.017233608
0002d0 c3 d1 10 3d 60 55 06 bd 78 e6 1a 3d 9e 9b 29 3c
       0.035356294 -0.032796264 0.03781745 0.010352043
0002e0 15 96 ec 3d f4 2c ba 3c 70 8f 77 3c 9c 0f 8c bd
       0.115520634 0.022726513 0.015109882 -0.06838915
0002f0 2a da 08 bc 48 5a 84 3d 3a cd 87 3d a0 ee 88 3d
       -0.008352796 0.06462532 0.06630941 0.06686139
000300 46 1e a2 3d 12 9a 81 3d d4 88 c6 bc db 3f 22 bd
       0.079159304 0.06328215 -0.024235167 -0.03961168
000310 f3 03 85 3d ef 6f 18 3d 87 06 c5 3d 71 5f a7 b9
       0.06494894 0.037216123 0.096203856 -0.00031923832
000320 25 a9 ae 3d 82 84 d2 bc 70 0f b1 3c e2 bb 95 3d
       0.085283555 -0.02569795 0.021613806 0.073112264
000330 ed da f0 3d c2 17 0a bc 4a 6f e5 bd 23 41 f4 bd
       0.11760507 -0.008428516 -0.11202867 -0.11926486
000340 11 d4 ab bd c9 c9 11 3d f1 6d 9c bc 6e c1 04 be
       -0.08390058 0.035592828 -0.019095393 -0.12964413
000350 70 54 8c bd c3 a3 9f bd 9c df 80 bd 53 d1 f2 3b
       -0.06852043 -0.07794907 -0.0629265 0.0074102073
000360 b7 bc 27 bd ec cb 9e bd ee 7f 84 bd f4 30 89 bd
       -0.040951457 -0.07753739 -0.06469713 -0.0669879
000370 87 8b 7c bd 92 c5 40 bd 24 e9 18 ba e3 c5 aa bd
       -0.0616565 -0.047063418 -0.00058330805 -0.08338525
000380 2c 14 a6 bd ac 83 59 ba 1a cf 9e bd b0 38 c6 3a
       -0.08109316 -0.00082975137 -0.07754345 0.0015123095
000390 8b 18 14 bb d4 78 2d bd 68 b2 76 3b 5b 33 b2 3b
       -0.0022597637 -0.04235156 0.003764296 0.005438251
0003a0 2b a9 45 3c 59 e1 0e 3d cc dd 56 bd 9d 6d 3f bd
       0.012064259 0.034882877 -0.052457616 -0.046735395
0003b0 0d 0f f8 bc c0 56 d6 3b 53 b5 17 bc 66 f3 0e bc
       -0.030280614 0.006541103 -0.00925954 -0.008725023
0003c0 b9 7a f3 bb 12 80 0c 3d 09 80 0b 3d af 35 6e 3b
       -0.007430401 0.034301825 0.03405765 0.0036347916
0003d0 09 4f 0c 3d c5 a3 84 bd f3 71 05 bd d9 5c 8b bc
       0.03425506 -0.06476549 -0.032579374 -0.017012047
0003e0 5e 1f aa bc 45 b9 ff 3c 6c a4 4b bd 04 a0 c4 bc
       -0.02076691 0.031216273 -0.04971735 -0.024002083
0003f0 2d 5d 21 bc 68 37 f4 3b 4d c5 64 bd cb 92 53 3d
       -0.009848875 0.007452894 -0.055852223 0.051653665

fc1.bias f4 [120]
000000 36 ee 2d bd e3 b1 96 3d 7b 67 6f bd 66 6d 69 3e
       -0.042463504 0.07358148 -0.058448296 0.22795638
000010 08 70 8c bd 7d 20 5e bc 33 6b d5 3d 8e f6 bb 3d
       -0.06857306 -0.0135575505 0.10420837 0.09177886
000020 a5 f0 d1 3b 71 31 61 3c e2 64 7a 3d f0 ca 2f 3d
       0.006406861 0.013744698 0.061131366 0.042918146
000030 d3 31 39 bd 10 10 8b 3c 07 41 95 3d 73 30 a1 bd
       -0.04521353 0.016975433 0.072877936 -0.07870569
000040 17 bb 19 3e a8 1a 13 bd a6 91 c9 bb 54 e1 b1 39
       0.15012775 -0.035914093 -0.006151396 0.00033927953
000050 e9 b0 d2 3d 1d 0c 37 bd 21 a9 83 bd d8 2b ab 3c
       0.10287649 -0.044689287 -0.06428743 0.02089493
000060 62 2a 77 3b a6 e1 ef bb c0 f7 4b bd 08 b1 93 bc
       0.003771447 -0.0073206006 -0.04979682 -0.018028751
000070 9d 4f 85 3d 33 40 0d bd e7 90 c5 bd 81 58 6b 3d
       0.06509326 -0.034485053 -0.096467786 0.05745745
000080 87 93 97 3b e8 63 98 bd 84 ea 52 3d 47 6d 96 bc
       0.004625741 -0.074409306 0.051493183 -0.018362654
000090 04 8b c0 3c 06 d8 75 3d 0c 92 ca 3c b9 dd 0b 3e
       0.023503788 0.06002047 0.024727844 0.13658799
0000a0 af 39 d0 bb e1 23 b0 bc 05 c3 d6 3d f0 e6 ae bd
       -0.0063545327 -0.021501483 0.10486416 -0.085401416
0000b0 01 47 b3 3d e4 25 b7 bc 00 31 fd 3d 67 4f 20 3e
       0.08753777 -0.022356935 0.12362862 0.1565529
0000c0 13 44 54 bb bc 1b dc bc cd 94 86 bd 4d 66 d4 3c
       -0.0032389208 -0.026868694 -0.0657135 0.025927687
0000d0 d9 5c 00 bd d2 47 fd bc fc d2 ba 3c 1b ea 4c bb
       -0.031338546 -0.030918036 0.022805683 -0.0031267467
0000e0 c6 0a 27 3e 6d 6a 76 bd 41 68 10 3e 49 94 57 3e
       0.16312703 -0.06016009 0.1410227 0.2105266
0000f0 e3 1c 99 bd 7e 54 d5 bd d4 63 05 bd 3b 14 7e 3d
       -0.07476213 -0.10416506 -0.032565907 0.062031012
000100 9c 34 b0 bc 0f 68 33 3e 2d 06 48 3d 06 c0 2a 3d
       -0.021509461 0.17520164 0.048834015 0.041687034
000110 c9 16 02 be 06 c4 f8 bd cb 9d 9c 3d ba 40 bd 3c
       -0.12704004 -0.121467635 0.07647284 0.023102153
000120 f0 ec a8 3c 2f c6 05 be 35 09 70 3d 00 78 4d 3d
       0.020620793 -0.13063882 0.05860253 0.05016327
000130 2f da 87 bb 88 ce 42 bd 15 b0 3a bc 69 40 27 bd
       -0.0041458826 -0.047560245 -0.01139452 -0.04083291
000140 7f 23 15 be c6 8f f2 3d fc 30 7c 3d 9b 74 66 bd
       -0.14564322 0.11843829 0.061570153 -0.056263547
000150 c4 20 68 3d 50 1e af bc 3a 7b 32 3c d4 26 7c bc
       0.056671873 -0.021376759 0.010893637 -0.015390117
000160 fb be bd bc 11 f9 e7 3c 5e fc 04 ba 88 b8 97 bc
       -0.023162356 0.028317006 -0.0005073006 -0.018520609
000170 b7 eb 9c 3d 04 1b 0c bd 55 c5 06 be ec 2e f9 3b
       0.076621465 -0.03420545 -0.13161214 0.0076044705
000180 0a 15 64 3c 8b 89 83 3d b5 f6 6f bd 2e 53 f9 3c
       0.013921032 0.064227186 -0.058584888 0.030435171
000190 02 a9 79 3d 28 77 e6 3c bb 6d 5d 3d 23 3a 0f 3e
       0.060952194 0.02813299 0.054059725 0.13987021
0001a0 1f 86 7a bc 31 f7 81 3d 71 38 db bc 53 3d cf 3c
       -0.015290766 0.06345976 -0.026760312 0.025297796
0001b0 85 41 be 3c e1 61 03 3e 33 6d 9a 3d a8 3e af 3b
       0.023224602 0.12830307 0.07540359 0.0053480454
0001c0 e2 96 b7 3c ba c2 54 3b 4b a9 4b 3d cb cc 3f 3d
       0.022410814 0.00324647 0.049721997 0.046826165
0001d0 8f a1 6b bd 55 5e 0f bd 10 b9 3e 3d b3 2a 43 3e
       -0.05752712 -0.03500207 0.046563208 0.19059257

fc2.weight f4 [84, 120]
000000 06 19 02 3d 61 e2 90 bd 21 81 0b bd fe a3 c0 3d
       0.031762145 -0.07074428 -0.034058694 0.09406279
000010 33 79 a8 bd ea 1b b9 3d 84 74 b2 3c 5e 54 72 bd
       -0.08226242 0.09038527 0.021784075 -0.05916249
000020 a4 73 c0 bd b8 3a db 3d 1e 01 64 3d c4 96 90 bd
       -0.09397057 0.10704559 0.055665128 -0.07060006
000030 34 b6 ab 3c 54 c8 85 bc a3 27 46 3a 4f 64 3e 3d
       0.020960905 -0.016330875 0.0007559007 0.04648238
000040 08 71 63 3d 9f 23 70 bd 0e d9 89 3d f8 e7 9b 3d
       0.055527717 -0.05862772 0.06730853 0.07612604
000050 21 35 11 3d 63 5d 84 bd c4 84 3c 3d 9a 57 61 bd
       0.03545106 -0.064631246 0.046025053 -0.055015184
000060 0e ce 9a bd 95 16 d7 bc 86 d4 bb bd a9 2d 68 bc
       -0.07558833 -0.026255885 -0.09171395 -0.0141710425
000070 3c 15 8f 3d d3 51 5c bd be 4d 85 bd 98 9d 1e bc
       0.06986472 -0.05378897 -0.06508969 -0.009681128
000080 3c 7f 89 3d 58 3b 7e 3d d2 97 5d bd 93 eb 05 bd
       0.06713721 0.062068313 -0.054099865 -0.032695364
000090 c2 2a 37 bd 60 58 43 bd 68 c1 8c 3d 00 de ac bd
       -0.04471851 -0.047691703 0.06872827 -0.08440781
0000a0 71 18 3f bd 55 a2 9d 3d 2b c5 94 3d 5b 91 80 3d
       -0.04665417 0.07696978 0.07264169 0.06277724
0000b0 d4 60 36 3c c7 4d ae 3d 7c 54 95 bd 8e df 92 bd
       0.011131484 0.085109286 -0.07291505 -0.07171546
0000c0 20 ee 62 bd 8c 11 8a 3d 22 25 ae bd ca 20 bb 3c
       -0.055402875 0.06741628 -0.08503176 0.022842783
0000d0 86 13 ea bd d0 3b 8d 3d 4c 98 8d 3d 5d ee c5 3c
       -0.11429505 0.06896174 0.06913814 0.024161512
0000e0 fc f5 b5 bd ec 96 98 3d 02 d9 8a 3d ef d6 9a bc
       -0.088848084 0.07450661 0.06779672 -0.018901316
0000f0 e3 85 33 3d 7f a4 17 3d 93 f9 bd bd 0e 0f 3d bd
       0.043828856 0.03702211 -0.09276118 -0.046156935
000100 3e 1f f8 3b 19 2a ed 3b fa 29 c1 bd 63 dc be bc
       0.0075720837 0.0072376844 -0.094318345 -0.023298448
000110 98 b2 a4 3c 38 3a 9d bd 40 e0 85 bd 92 83 7b bd
       0.020104691 -0.0767712 -0.06536913 -0.061404772
000120 0d ca 21 bd 89 1c ef bb c5 0c 53 bd 16 e0 89 bd
       -0.03949933 -0.007297103 -0.05152585 -0.06732194
000130 fe 9f ab bc bd 90 c9 3d ae f5 18 bd 5b d0 a4 bd
       -0.020950314 0.0984206 -0.037343673 -0.08047553
000140 ae b2 19 3e f1 6c ad bd b5 29 33 bd b4 76 ce bd
       0.15009567 -0.084680445 -0.043740947 -0.100812346
000150 d5 4c af 3d 4d 54 3f 3c 24 5c 3a bd 55 43 9e 3b
       0.085595764 0.011677814 -0.04549803 0.004829804
000160 00 25 a5 3d 7a 96 b1 3c 0a e8 b9 bd 3e 77 29 bb
       0.08063698 0.021678198 -0.09077461 -0.0025858427
000170 e8 ac 36 bc 07 dd f8 bc 78 04 f9 3c 9a a0 b9 3c
       -0.0111496225 -0.030378832 0.030397639 0.022659589
000180 98 d9 11 bd 9d 0c a3 bc f0 47 39 3c 86 04 a1 3c
       -0.035607904 -0.019903475 0.011308655 0.019655477
000190 da ec 8b 3d 1b 20 5f 3d 63 48 55 bd 78 96 8a bc
       0.06832285 0.054473978 -0.052070986 -0.016917452
0001a0 e3 4f 5d bd ce 11 52 bd a4 3b 10 bd d9 5e cd 3d
       -0.054031264 -0.05128651 -0.035213128 0.100278564
0001b0 b5 89 b0 3d d5 4f b7 bd 52 c9 44 3d 05 79 45 bd
       0.086200155 -0.089507736 0.048043557 -0.048211116
0001c0 de 88 e8 3c f3 a2 c6 bd ae fa 44 3d 9f 9e 35 3b
       0.028385576 -0.09699049 0.04809063 0.0027712954
0001d0 df 11 81 3d f5 e3 b2 3d ed 9e 9b bd 59 ed 81 bd
       0.06302237 0.087348856 -0.07598672 -0.063440986
0001e0 16 7d b1 bc fe c0 1f 3d 07 4f 38 bd 7b 5e 78 bd
       -0.021666091 0.03900241 -0.04499724 -0.06063698
0001f0 d9 ce 95 3c 35 04 8d 3d d7 a0 77 bc 95 c7 5e 3d
       0.01828711 0.06885568 -0.015114031 0.054389555
000200 9e c9 a9 bd bc 4b 5a bd 8a 46 a4 3d 5d d3 b5 bc
       -0.082904086 -0.053294882 0.08021267 -0.022195512
000210 43 30 5d bd b9 0e b8 bd dc f6 78 bd aa 26 cd bd
       -0.054001104 -0.08987183 -0.0607823 -0.1001714
000220 9f e4 64 3d 34 d4 3e bd d6 c5 b7 3d c6 13 1b 3d
       0.055882093 -0.04658909 0.08973281 0.037860654
000230 f0 a7 b1 bd df 46 79 3c da 49 a0 3c a7 2c c9 bc
       -0.0867461 0.015214651 0.019566465 -0.024557425
000240 0d c6 45 bd e8 ae 57 3d cf 75 9d bd 38 a9 42 bc
       -0.04828458 0.052657038 -0.07688486 -0.011881165
000250 ce b9 28 bc 69 f7 81 3d f7 89 4b bc cd 58 4a bd
       -0.010298206 0.06346018 -0.01242303 -0.049401093
000260 a6 91 34 bd 2d 88 16 bd b8 ea 02 bd 4a ca 45 bd
       -0.044084214 -0.03675096 -0.031962126 -0.04828862
000270 fa ad 0e bd f4 28 22 3d e4 0e b6 bc 0e c6 f9 3c
       -0.034833886 0.039589837 -0.022223897 0.030489948
000280 12 5a 99 3c 9e 5a aa 3d fe ef 18 3c 51 3f 85 bb
       0.018719707 0.08318065 0.009334562 -0.004066386
000290 12 5a 48 3d 55 d8 8c 3d c6 b0 25 3d b0 b9 32 3c
       0.048914023 0.068771996 0.040451787 0.010908529
0002a0 39 41 84 3d 19 61 60 bd 0e 78 ac bb c8 75 8b bd
       0.06457753 -0.0547801 -0.005263335 -0.06809574
0002b0 28 b3 80 3d 7a 72 96 3d 58 d7 8a 3d 1a b0 ce bc
       0.06284171 0.073460534 0.06779355 -0.025230456
0002c0 c1 e6 9c bd c5 a4 9d bd 3f b1 a5 3c dc 4e a3 bd
       -0.076612 -0.07697443 0.02022612 -0.079740256
0002d0 0f 51 b2 bd f4 c9 10 bd 1a 60 10 bd af 94 91 bd
       -0.08706867 -0.035348848 -0.0352479 -0.07108437
0002e0 74 a3 13 3d 39 01 09 bd 30 4a a0 3d 0d c3 62 bc
       0.036044553 -0.03344843 0.0782665 -0.013840449
0002f0 4c c7 0f 3c 8d 46 a4 bc cd 01 0e 3c 06 aa 29 bd
       0.008775543 -0.020053172 0.0086674215 -0.041421913
000300 f4 cd 85 bc a9 c5 91 bd fb 3a 6e bd b1 81 57 3d
       -0.016333558 -0.07117779 -0.058161717 0.052613918
000310 75 06 0e bd b6 b3 54 bd 07 ef 84 3d 9a ee 14 bd
       -0.034674127 -0.0519292 0.06490903 -0.03636036
000320 9a 43 99 3b ab 50 b3 bc e2 aa ab bd d0 c2 5a bd
       0.004677248 -0.021889051 -0.08382203 -0.053408444
000330 e0 ba 8a bd 5a 44 a2 3d e6 4a 97 bc a7 71 8d 3d
       -0.06773925 0.07923193 -0.018468332 0.06906443
000340 27 bb 5f 3d ba 44 ae bc ba 81 83 bd 8b fc dc 3c
       0.05462184 -0.021273006 -0.06421228 0.02697589
000350 97 03 03 bd 41 cd 83 bb 82 00 0e 3d f5 bf 4f 3b
       -0.031985845 -0.004022271 0.034668453 0.0031700109
000360 87 b8 cb 3c bf 91 9c bc 8d d0 05 bd 4a ef b2 3d
       0.024868263 -0.019112466 -0.032669593 0.08737047
000370 93 30 c3 bc 4d f2 69 bd 62 3e b5 bd e9 3d 8b bd
       -0.023826873 -0.05711584 -0.08849789 -0.06798918
000380 85 b1 5c bd 3b e8 b0 bd 68 d7 be bd e3 5b f7 3c
       -0.053880233 -0.086380444 -0.09318429 0.030195182
000390 10 64 94 3d 72 5e 8a 3c 24 58 87 3d 83 19 23 3d
       0.07245648 0.016890738 0.06608608 0.03981925
0003a0 13 6e 41 bd 5f ed 8d bd cd 1f 19 3d 48 a3 36 bd
       -0.047224116 -0.069300406 0.037383843 -0.04458931
0003b0 93 88 95 3d 50 24 15 3d ec d9 69 bd f0 48 7a 3d
       0.0730144 0.036411583 -0.057092592 0.061104715
0003c0 3f 67 69 39 a8 ff 0c bd ac c8 17 3e 5a 34 c5 bd
       0.00022259074 -0.0344235 0.14822644 -0.09629126
0003d0 31 db 61 3c 88 9e 90 3a cb 72 85 bd a0 37 8d 3d
       0.013785169 0.0011033574 -0.06516036 0.06895375
0003e0 b1 de fd bd bf 2e 90 bb 17 4f 68 bd 22 90 12 bb
       -0.12395991 -0.004400104 -0.05671605 -0.0022363742
0003f0 01 1d cb bd 6c bd b8 bd b5 dd a8 bd 17 54 00 3e
       -0.099176414 -0.09020504 -0.08245412 0.12532078

fc2.bias f4 [84]
000000 bd b4 5b 3d e9 48 c7 bd fe f3 d1 bd 69 92 1b 3e
       0.053639162 -0.097307034 -0.10251616 0.1519257
000010 27 43 7b 3d 4f 80 b2 3a 54 71 33 3e df 94 20 3d
       0.06134334 0.0013618561 0.175237 0.039204475
000020 b9 d9 7e bd a5 bd b6 bd af a4 47 3e b0 19 bb bd
       -0.062219355 -0.089228906 0.19496416 -0.09135759
000030 87 52 a9 3e d1 42 cf 3d b4 60 d4 3d 70 60 8b 3e
       0.33070776 0.10120166 0.10370007 0.27222013
000040 ae 18 64 bd 58 46 ba bd 2e 71 e6 3d 24 d2 77 3d
       -0.0556876 -0.09095448 0.11252056 0.06050314
000050 d1 e7 97 bd fd e9 75 3e 28 a8 90 3d f9 0d ec bc
       -0.07417262 0.2401504 0.07063323 -0.028815256
000060 cc dd 8c bc 85 0d 82 3e 89 a7 2a 3e 95 25 65 3c
       -0.017195605 0.2540094 0.16665472 0.013986011
000070 81 c0 4e 3b 55 c1 b0 3e a8 97 72 bb 03 d2 62 bd
       0.0031547847 0.345225 -0.0037016664 -0.055376064
000080 e5 b6 c1 bb 0a 0a 6f 3e 18 9d 23 3e 59 12 ee 3b
       -0.0059116953 0.23343673 0.15977895 0.007265371
000090 9a cd 47 bd bd 6b 4a 3d 77 4d cb bc 66 fa 9c bd
       -0.04878006 0.049419153 -0.024817212 -0.07664947
0000a0 28 b3 9e bc 2f 8e 56 3e b0 b2 55 3d 09 f5 09 bd
       -0.019372538 0.20952676 0.052172363 -0.03368095
0000b0 b9 77 e9 3d 69 12 44 3e 7e a8 3d be 4d 7b 90 bd
       0.113997884 0.19147648 -0.18521306 -0.07054768
0000c0 9f 5a a8 bd 53 fe 53 3d 73 f2 d9 3d 5f 5b 51 3d
       -0.082204096 0.051756214 0.10641947 0.05111253
0000d0 ea 22 6f bd dc b5 a2 3c 69 f3 1f be 72 fd 5e bd
       -0.058382906 0.019862108 -0.15620197 -0.054440923
0000e0 d0 3e 02 be 5e a7 2b bc 30 5f 7b 3e 63 4d b0 3d
       -0.12719274 -0.010476915 0.2454803 0.0860851
0000f0 0f aa 9d 3d 78 84 3c 3d 89 d2 92 3e 6f f7 4e 3e
       0.07698452 0.04602477 0.2867625 0.20211576
000100 04 68 bb 3d ed 42 e2 bc 7e 9e 0a 3d 99 02 77 bd
       0.09150699 -0.027619803 0.033842556 -0.06030521
000110 0f b3 df bd ac be d9 3d 0a de 99 bd 4e 0f f9 bd
       -0.109228246 0.10632071 -0.07513054 -0.12161122
000120 e2 db 12 3d a9 13 ab bd a2 20 50 bd 0c fe b7 bd
       0.035854228 -0.08353359 -0.05081237 -0.089840025
000130 6f e8 62 bc a7 5e 0d 3e fe ac 6a bd f9 60 91 3e
       -0.013849362 0.13805638 -0.057293884 0.28394297
000140 92 7f 91 bd e7 8a 1c 3d 9b 0d 8c 3d 6f b2 33 bd
       -0.0710441 0.038218405 0.068385325 -0.04387134

fc3.weight f4 [10, 84]
000000 9c d8 9f bd 40 bb 9d bc eb 0e ca 3d d5 ea ed 3c
       -0.07804987 -0.019254327 0.098661266 0.02904264
000010 73 75 b1 3d b5 8e 2d bd cc 07 40 3e 30 ef 7a bd
       0.0866498 -0.042372424 0.18752974 -0.061263263
000020 ce dc 7f 3d 8b cc 37 bd 90 cc 69 be 7a 91 a1 bc
       0.062466435 -0.0448728 -0.2283194 -0.019722689
000030 63 81 e8 bd a5 61 1e 3e ca ce 5c 3d 10 37 50 3e
       -0.113528036 0.15466936 0.053908147 0.20333505
000040 74 d5 82 bd 60 ed f6 bd 5c 4c 06 3d 8f f1 de bc
       -0.06388369 -0.120569944 0.032787666 -0.027214793
000050 8e c9 59 3d 06 7d 83 be c4 63 25 bd cd f6 2d be
       0.053170733 -0.25681323 -0.040378347 -0.16988678
000060 7d 63 91 3d f9 fd 7c 3e 85 fb 93 bd ba 92 95 bd
       0.07099054 0.24706258 -0.07225708 -0.073033765
000070 83 d3 b4 3d 83 08 92 be 1a 50 42 bd 96 19 cd bd
       0.08829405 -0.2852212 -0.047439672 -0.10014646
000080 51 0d e3 3d 3e ba 4f be 16 ce 8b bd 51 ba 1f be
       0.11086524 -0.2028589 -0.06826417 -0.15598418
000090 0b 67 ba bd b6 95 3e 3e 0d 7d 11 be 9e 42 9d bc
       -0.09101685 0.18611798 -0.1420786 -0.019196805
0000a0 5a 8e 8c 3d 29 df 34 3e 68 1a a9 3d 24 52 6c 3e
       0.06863089 0.17663254 0.0825699 0.23078209
0000b0 4b 70 5e be 1c 9b 43 3e 59 b2 0f bd e3 04 fc bc
       -0.21722524 0.19102138 -0.035082195 -0.030764049
0000c0 1a 8c 58 3e b6 e6 a9 3d 01 24 03 bd 8c 17 87 3c
       0.21147195 0.08295958 -0.032016758 0.01649072
0000d0 5a ec 13 3e 7b f8 d5 3d af a5 53 3c 7b 05 8e 3d
       0.1444563 0.104477845 0.01291792 0.06934639
0000e0 18 79 31 3e b4 79 ae 3d 33 35 87 3d 71 45 ff 3d
       0.1733135 0.08519307 0.06601944 0.12464417
0000f0 48 90 91 3d 8f 4b f4 3d b3 12 1f be 6f 9a 15 3e
       0.071075976 0.11928474 -0.15534477 0.14609693
000100 f5 f7 3d bc 78 9c 03 3e 3a a6 2a bb 07 5a 83 3d
       -0.011594762 0.12852657 -0.002603902 0.06413656
000110 13 ce 1b 3e b1 80 98 be 6f 84 87 3e c3 1d d1 bd
       0.1521533 -0.29785684 0.26468226 -0.10210755
000120 68 22 7f bd a1 95 93 bd 1d ba 9d bc ca d7 aa bd
       -0.06228867 -0.07206274 -0.019253785 -0.0834194
000130 e8 22 85 bd 3c 7a f9 3d 62 44 cb 3d 8e b4 5c bd
       -0.065007985 0.121815175 0.09925152 -0.053883128
000140 86 fb 9d 3b 2e bf e2 3d bf 0c 5d 3d 07 88 ab 3d
       0.0048212437 0.11071621 0.053967234 0.083755545
000150 5a fd af 3c 5c 8f 7d bc 21 1f 9b 3e 4b a1 a2 bd
       0.021483112 -0.015476074 0.30297187 -0.079409204
000160 31 bd 2a 3e 89 6c 98 3d 56 a7 ea 3c f3 31 a6 bd
       0.16673733 0.074425764 0.028644245 -0.08114996
000170 87 5d bf bd 63 10 f5 3c 04 74 96 bc 0f 25 4f 3e
       -0.09344011 0.02991504 -0.018365867 0.2022898
000180 f8 df 5d be 76 40 6c 3e 47 8a 66 bc ba 92 5a be
       -0.21667469 0.23071465 -0.014071054 -0.21345034
000190 12 93 8c bc 5a 68 13 3e 88 af 90 be 97 2c 8d be
       -0.017159972 0.14395276 -0.2825892 -0.27573082
0001a0 e2 63 c1 3d 7f 58 59 be 9c 1b 90 bd 2b f4 00 be
       0.09442879 -0.21225165 -0.07036516 -0.12593143
0001b0 50 00 54 3d 41 4a d1 bd 49 c6 3c be ea 93 58 3d
       0.05175811 -0.10219241 -0.18435015 0.052875437
0001c0 29 48 0d bd 65 f8 e0 be 29 de 07 3e 58 e0 9d 3d
       -0.034492645 -0.4393951 0.13268341 0.07708806
0001d0 36 c5 3f 3e cb d4 38 3c b0 10 e8 3c ab de 12 3e
       0.18727574 0.011281203 0.02832827 0.14342754
0001e0 1c 3c e9 bc 54 81 5a be 65 35 e2 3d 2b 27 22 bb
       -0.028471045 -0.21338397 0.110453404 -0.0024742584
0001f0 c6 04 4d 3d 92 af 8d 3d e8 c2 f1 bd aa 2c ff bc
       0.05005338 0.06918253 -0.118047535 -0.031149227
000200 15 81 9f 3d 02 2f b4 bd ac c2 35 3e 88 d3 5e 3e
       0.07788292 -0.087980285 0.17750043 0.2176038
000210 6c 7a a2 bd 8e 9c 0f 3e 9f ff bd bd 48 a3 a5 3d
       -0.07933506 0.14024565 -0.092772715 0.08087784
000220 75 d3 4b 3d 5f 1e f2 bd a9 73 9a 3d a5 ef 96 3e
       0.049762208 -0.11822199 0.07541592 0.2947971
000230 78 02 ec 3d 80 2a 34 3e 72 bb c1 bd 56 ef ae bd
       0.115239084 0.17594337 -0.094595805 -0.085417435
000240 7d 5c ad bd 58 de 3e 3e 77 6f 54 be a6 a8 dd bd
       -0.08464906 0.18639505 -0.20745645 -0.10823183
000250 be df bc bc fd e8 86 3d 25 6b 86 3e a4 8b b7 3d
       -0.023055907 0.06587408 0.2625362 0.08962181
000260 b7 50 06 3e 69 02 c5 3d e9 f6 61 bd 5c 2e 17 3c
       0.13116728 0.096196 -0.055167112 0.0092273615
000270 0a 5e 9e 3d 46 e0 97 3c 21 d8 81 bd 94 27 89 3c
       0.0773278 0.01853956 -0.063400514 0.016742505
000280 a8 79 32 bd 23 fc 21 be c3 d3 98 3d 05 57 7e be
       -0.04357305 -0.15818839 0.07462265 -0.24837883
000290 f2 2f bc 3c fd f8 6b be 13 40 97 bd 83 dc 26 3e
       0.02297208 -0.230442 -0.07385268 0.16295056
0002a0 b6 ef 09 3e 83 d6 81 3d ee db 3d be e9 26 22 3d
       0.13470349 0.06339743 -0.18540928 0.03958789
0002b0 43 93 a1 bd bb ea 5f be 72 86 ac bd 6a 75 8a bd
       -0.07889416 -0.21866886 -0.08424081 -0.06760676
0002c0 c3 cf 55 bd 31 d3 a1 bd fb 2a 26 3d 33 53 76 3c
       -0.05220009 -0.0790161 0.040568333 0.015034485
0002d0 03 90 95 3e f4 c2 24 be 70 0c 75 3e 90 40 26 3d
       0.29211435 -0.16089994 0.23930526 0.040588915
0002e0 fb 9e 74 3d 49 ad b3 3c 54 20 35 3e 30 1f 56 be
       0.059721928 0.021933215 0.17688113 -0.20910335
0002f0 2f e1 31 3e 24 2c e6 bd 93 5d 87 bc f6 06 dc 3d
       0.17371057 -0.11238888 -0.016524112 0.10743515
000300 49 12 01 3c 67 11 5d 3e 87 74 09 be 77 1c e8 bc
       0.007877895 0.2158867 -0.13423358 -0.028333886
000310 89 db 92 bd 1f 16 84 3e c3 7c 2d bc 6e ef d9 3d
       -0.07170779 0.25798127 -0.010588828 0.10641371
000320 fd f6 48 bd 1f 68 d0 bb 72 ae 5a be 0b 29 0b be
       -0.04906367 -0.0063600685 -0.21355608 -0.13589875
000330 18 23 a0 3c e6 48 e5 3d eb 75 22 3e 64 0f 52 bd
       0.019547984 0.11195545 0.15865295 -0.05128421
000340 ce 32 c4 bd 2d 0d 40 3e 0b 36 0d 3e 20 87 39 3e
       -0.09580003 0.18755026 0.13790147 0.18117952
000350 61 57 5f be 95 17 c3 3d 75 76 7f 3b 4b d5 a4 3c
       -0.21810676 0.09525982 0.0038980518 0.020121237
000360 c2 0f 56 bd b9 37 e5 3d 75 24 e1 bd b0 12 1c 3d
       -0.05226112 0.11192269 -0.10993282 0.03810376
000370 51 f4 07 3e ae 0d a3 bd 3f f9 3d be 65 c8 48 be
       0.13276793 -0.079615936 -0.18552111 -0.19607694
000380 f1 fb 97 bd 4d db dc bd 61 9e d0 bd 5d f2 63 3d
       -0.07421101 -0.10784016 -0.101864584 0.055651058
000390 e7 12 b8 3d c5 9a 61 bb 38 be dd 3d 24 c2 24 3d
       0.0898798 -0.0034424525 0.10827297 0.04022421
0003a0 e1 ca 5c 3e 2a 64 44 be 02 e6 c5 bd 2a a5 98 3d
       0.21561767 -0.19178835 -0.09663011 0.074533775
0003b0 f9 6f 7a 3d c8 0f d8 39 9a 53 ab bd 38 11 1e 3e
       0.06114194 0.00041210488 -0.08365555 0.15436256
0003c0 37 eb 68 bc b7 29 ce bd e8 4d 07 bd 1e ef 74 3e
       -0.014216236 -0.1006655 -0.03303328 0.23919341
0003d0 2f 8d c4 3d a2 6a 2a 3c a6 ee f0 3c df 65 3a 3e
       0.09597241 0.0104014 0.029410671 0.18202923
0003e0 b6 ca a1 bd 6b 93 b3 3d ab 6c 21 bd c0 df 1b be
       -0.07899992 0.08768352 -0.039410274 -0.15222073
0003f0 a7 80 24 bd d4 fb ab bd 05 64 4a be 2d 7b 9b 3d
       -0.040161755 -0.08397642 -0.19764717 0.07591853

fc3.bias f4 [10]
000000 2c 78 fa bd 8a e1 0c bf 42 58 0d 3e 65 e3 c6 3e
       -0.12229952 -0.55031645 0.13803199 0.38845363
000010 3c b2 e1 3e 3b bb e2 3d e9 06 7b 3d 80 10 ae be
       0.44081295 0.11070868 0.061285887 -0.33996964
000020 a2 2f c9 3e 5c 3f 67 be
       0.39294153 -0.22582763
