pytorch/tutorial/cifar_net.pth (torch, 251411 bytes, 10 tensors)

conv1.weight f4 [6, 3, 5, 5]
00000000: ffa1 773d 28d4 c23e a698 be3e e5e8 943e
00000010: af9a 033c c22b bb3e 53a0 ad3e 0be1 b13e
00000020: 5a5e ac3e 7709 9d3c ca27 d3be dca5 05bf
00000030: c545 08bf a298 06bf c324 3dbe 319a 4ebe
00000040: d2e0 6abe 0dd2 95be e66a 5ebe f31e debd
00000050: 0b05 a5bb 18a0 92bc 36c9 eb3d eeb5 3fbc
00000060: 5a0a 583b c55f 03bd 5d73 913e b232 613e
00000070: 0686 b23e a05d 4ebd 193e a33e aa78 d73e
00000080: 1c53 823e 734a c33e 4ab0 0d3e ae5a 86be
00000090: 4500 b6be 8ece e6be aed5 debe df66 15be
000000a0: 049a 72bd 13c9 86be 4564 0bbe 3ab2 1fbe
000000b0: 41b7 52bc 97e1 d9bd a6a3 1e3e 5df9 243e
000000c0: 078d 0a3e 139e 213e 45d5 acbe ceba b3bd
000000d0: e2d9 95bc 5570 0e3d 44f7 81be 1585 2e3d
000000e0: c469 863e 2b7b 673e 4339 0d3e 89bf 48bc
000000f0: 2a9e 77be 55d8 7bbe ea02 04bf 79b4 56be
00000100: f196 bdbd a03a 363c 72b2 763c 92ef 663d
00000110: d487 0dbd a77a 443d d591 4d3e 128d a33e
00000120: 77ac bb3e 973c 6d3e fb4e 743e bb5f 453d
00000130: ed5d f23d 27ed 23bd 88e8 e73c 26a3 953d
00000140: e666 acbd 8e4e 87bc cf82 183d 3ae0 e43d
00000150: 0c92 723e 44a3 edbd 52e7 4cbe d9ef e13c
00000160: 85ad 163e e317 2c3e 815f 20be d879 13be
00000170: f59c ba3d cebd 273e fd53 113e 6d2f 10be
00000180: ae8a 29be d655 bc3d 9519 be3d 7f8f 003d
00000190: 9faa c83c 5f8b f73b ac51 f3bd d065 d9bc
000001a0: 1fdf 16bc d335 11be 01a4 85be 8562 eabc
000001b0: 999d b93d c204 b33d d99d a8be 3d55 49be
000001c0: 2802 71bd 891c 6e3e a389 743e 36f1 97be
000001d0: b508 88be d7db 2fbc dee6 363e c77c 9f3d
000001e0: 6424 64be 4733 08be af8d b73d 3649 da3c
000001f0: a752 853d 6823 17be afa4 02bd 0af4 acbd
00000200: 72c6 be3c dfd5 043e 58d4 c4bd cd4c a7bd
00000210: f297 20be 386e 0f3e a7fc 1b3e 6e15 9ebe
00000220: 4a94 41be 6c22 203d 96e9 ae3e e702 693e
00000230: 44dc 4fbe ffe4 45be 4bec ad3d 98a3 923e
00000240: c284 8a3e a0f5 93bd e3e6 65bb 0dc8 1f3e
00000250: be5a c73d cfab f83d 2e42 e5bd e6e3 15be
00000260: e9b7 83bd 85d6 a2bd 8e36 aabd 2347 febd
00000270: 465a 50be 102c 0ebe a80c 52be 68ee 02be
00000280: e5f3 3dbb 51f9 05be 828d 03be b3f5 8fbe
00000290: d05b f1bd 3aa7 bfbd cc13 82bd f7ab 23bd
000002a0: aa61 d9bd 36f7 1dbe 2362 70bd 4c3d 47be
000002b0: 8da9 7fbd 1699 a4bd 3940 82bd e3eb 65bc
000002c0: 908c f33c 8603 5abd 38ec cebd 3ae7 a3bd
000002d0: f67f bebc d363 663d 6cad af3c fa3e 3abd
000002e0: 5af7 8abc 2efe 2abe ac6f dbbd 3cd6 5c3d
000002f0: 7967 ff3c 2513 01bd e616 17be 42e7 5fbd
00000300: f792 04bd aa53 803d 517c 1b3d b95e 15be
00000310: 2b88 a4bc 6562 923c 33a3 01bd 5a42 44be
00000320: 08b9 473e 73f6 903e 07a8 803e 33f9 7c3e
00000330: 662d 323d 823d 823e 724a 743e 6337 5c3e
00000340: 32c3 8b3e af78 d33d 535a 883d 7cd3 ad3e
00000350: d37e be3e 1100 a13e 3f92 b53d bd87 7d3d
00000360: b93e 6c3e f2b3 343e 1457 9b3e d99a ed3d
00000370: 7193 05be 7ce3 5d3c 2eb7 043e 471d ca3d
00000380: 807b dcbc e884 923d 7937 bb3e 4d50 cd3e
00000390: 5687 ab3e 27e2 783d a89c 333e 75e8 9a3e
000003a0: 6b98 703e 0271 c63e d874 003e 3d3b 893e
000003b0: 9727 bc3e a9ca d53e c3ad ac3e 5912 d53c
000003c0: 7351 ad3d 3386 1d3e e286 8f3d 4cde 663d
000003d0: 232e 02be b329 17be 1d79 94be e2b6 97be
000003e0: 67c7 d9be 1135 9bbe 8241 7abe a6ad 56be
000003f0: acde ff3b 7d95 29bd fa36 47be 5b90 c7be
0.060457226 0.38052487 0.37225837 0.29083934 0.008032485 0.36556822 0.3391138 0.34742007
0.33665735 0.019169552 -0.41241294 -0.52206206 -0.5323146 -0.5257665 -0.18471055 -0.20176007
-0.22937325 -0.2926182 -0.21720466 -0.10845747 -0.0050360016 -0.017898604 0.11512987 -0.01170109
0.0032965154 -0.032073755 0.28408328 0.21991995 0.34867877 -0.050382257 0.31883314 0.42084247
0.25454032 0.38142738 0.1383678 -0.26241058 -0.3554708 -0.45079464 -0.435224 -0.14590023
-0.059228912 -0.26325282 -0.13612469 -0.15595332 -0.012861074 -0.10638731 0.15492114 0.1611075
0.1353036 0.15782957 -0.33756462 -0.087758645 -0.018292371 0.034775097 -0.2538396 0.042607386
0.26252568 0.22605579 0.13791375 -0.012252697 -0.24181429 -0.24594243 -0.51566947 -0.20967282
-0.092573054 0.011122376 0.015057193 0.056380816 -0.034553364 0.047968533 0.20075162 0.31943566
0.36655018 0.23167644 0.23858254 0.048187 0.11834321 -0.040021088 0.028309122 0.07306509
-0.08418064 -0.01651695 0.037234124 0.1117558 0.23688525 -0.11603406 -0.20010117 0.027580189
0.1471463 0.16805987 -0.15661432 -0.14401948 0.091119684 0.16380998 0.14192195 -0.14080591
-0.16556808 0.091960594 0.09282223 0.03138685 0.024495421 0.007554456 -0.11880812 -0.026537806
-0.00920847 -0.14180689 -0.26101688 -0.02861143 0.090632625 0.08741142 -0.32932928 -0.19661422
-0.058839947 0.23253073 0.23880629 -0.29676217 -0.26569143 -0.010733566 0.17861506 0.07787471
-0.22279507 -0.13300811 0.08962571 0.026646238 0.06509905 -0.147596 -0.031895336 -0.08444984
0.023287985 0.1297221 -0.09610814 -0.081689455 -0.15682963 0.14006889 0.15233098 -0.30875725
-0.18904224 0.039095327 0.34162587 0.22755013 -0.20298868 -0.19325636 0.08492335 0.28640437
0.2705441 -0.072245836 -0.0035080246 0.15603657 0.097341046 0.12142145 -0.111942634 -0.14637718
-0.064315625 -0.079510726 -0.08311187 -0.12415912 -0.20346937 -0.13883996 -0.2051264 -0.12786257
-0.0028984484 -0.13083388 -0.1284695 -0.2811714 -0.1178509 -0.09358068 -0.06351432 -0.03995892
-0.10614331 -0.15426335 -0.05868734 -0.19456977 -0.062417556 -0.08037011 -0.06359906 -0.014033291
0.029730111 -0.053226016 -0.10103649 -0.08003087 -0.023254376 0.056247544 0.021444999 -0.045470215
-0.01696365 -0.16698524 -0.10714659 0.053915247 0.03117727 -0.0315124 -0.14754829 -0.054663904
-0.03236672 0.06265958 0.037960354 -0.14586915 -0.020084461 0.017869184 -0.03164978 -0.19165936
0.19504178 0.28313026 0.25128195 0.24704437 0.043500327 0.25437552 0.23856524 0.21505503
0.2729736 0.10325753 0.06657853 0.33950412 0.37206134 0.31445363 0.08865785 0.06189703
0.23070802 0.17646769 0.30339873 0.116018005 -0.13044526 0.013543006 0.12960503 0.098688655
-0.026914358 0.07154256 0.3656576 0.40100327 0.3350169 0.06076255 0.17540228 0.30255476
0.23495643 0.38758093 0.12544572 0.26803008 0.36748955 0.4175618 0.3372632 0.026009725
0.08462801 0.15383224 0.07008149 0.056364343 -0.12712912 -0.14762 -0.28998652 -0.29631716
-0.42534944 -0.30313924 -0.24439052 -0.20964679 0.007808527 -0.04140233 -0.19454566 -0.38977322

conv1.bias f4 [6]
00000000: 0610 bebe f990 8ebc b934 083f e169 d4be
00000010: 7d96 17be 354a d6be
-0.371216 -0.017403113 0.5320545 -0.4148703 -0.148035 -0.4185349

conv2.weight f4 [16, 6, 5, 5]
00000000: 8848 7d3d c5dd aebd 4855 dfbc f382 7cbd
00000010: 3ee2 4d3e ced7 9e3d b1c7 2e3b 7a8c 023d
00000020: b130 123e 5d91 183e 6919 e13d 48f0 843c
00000030: a84b c73d b970 cf3d 0995 f73d 6ba7 59be
00000040: 6585 003b 6312 1b3e 7fbc ea3d eb01 8f3d
00000050: dc63 3d3e 0170 a33e 5753 173e 3425 5bbd
00000060: 6bb5 23be d612 59bc 375b 0cbe 305c fdbd
00000070: 28ab 07bd e0e3 40be e795 103d c705 2f3d
00000080: c2e9 fcbd d11e 2bbe 4479 53be 094d 0c3e
00000090: 660e d33c 565d ecbd 71b0 3bbe 28a5 b03b
000000a0: dea0 a93d 0cb3 e9bd 23c7 1cbe 2b0b 983d
000000b0: 79d2 aa3e 3b8f 65bd 48cb 21be 037d 363e
000000c0: ae83 8b3d a6c1 583e fa6b 04bd 618a 063c
000000d0: 59a0 4f3d f463 a93c 3e9b 12bb 5f31 b3bd
000000e0: 82a8 89bb 56c1 cbbb 41d6 023d 68e1 073e
000000f0: 8718 a2bd b6a7 513d 3c75 81bd 75ef 5c3a
00000100: dcab 973d 0f1a fdbd 5318 4c3d 8834 493c
00000110: a152 a83c f9c8 413d d20a 17be 8ee2 6ebd
00000120: a0f0 213c b335 123d 2136 433d c930 e7bd
00000130: 0d89 2bbb 1317 7bbd 91ea 20bd b0c8 233e
00000140: e7ee d43c a336 e5bd b2f1 c2bd 2ae4 b23d
00000150: f297 d43d 1379 03be 48e6 13be 5acb bb3d
00000160: e1f2 9d3d 20c5 0a3d 40af 823d 41ee 7d3d
00000170: eca6 9f3d 63e9 843d aee5 36be 27b0 863e
00000180: 9f28 3c3e c192 bbbd a7ac ffbc e9d9 1fbe
00000190: 67de ca3c 5ca8 f8bb a9b6 6b3c 6697 10bd
000001a0: 2943 46be e4a5 8dbd da0a 923c 8786 8c3c
000001b0: 52b9 16bb 9335 023e 01d8 623d af78 aa3d
000001c0: d613 dabd 0d50 ee3c 3616 0e3e a65b 7c3d
000001d0: 4ff4 163d 68c5 0d3e 6e52 353e 4729 f73d
000001e0: 5440 c5bc de31 473d 8166 623e cf7a c9bd
000001f0: e01c 2e3c 2128 85bd 4f89 f6bd 1e02 d2bc
00000200: 7535 bdbd c538 9939 6e9e 13be 8ecd babd
00000210: 1201 18be 7852 27be 9f9c 68bd ac3b 23be
00000220: 927e 2dbe b8b0 39be 53f0 77be 9c33 47be
00000230: 5254 edbd f1a7 5abe 2518 39be 6f89 a0bd
00000240: 5f49 583c 146b 01be 2fbb 22be fd2f f63a
00000250: 1dac 1f3e e5db d33d 69ba b0bd 7e09 b4bd
00000260: 929a e0bd d4dc 35be 8c04 3dbd 2682 b13d
00000270: f8a4 193d db91 b4bd f23a 0dbc daf6 a4bc
00000280: 61cb f13d b6c0 b03d 683d 103e b981 e73d
00000290: 2be7 993d 0489 863e 882c 3c3e 89a4 623e
000002a0: bdfe 943e e116 2e3e 23d8 223e d60f f63d
000002b0: b816 eb3d 76c0 b93d 442f 293e a4de 663c
000002c0: d70e 373b 6dd6 48bd 5e9c 0b3e 6299 ab3d
000002d0: eafe d4bc 284a bd3d ef0f 873d 799b 473d
000002e0: b136 8b3c 0632 a23d d1e2 48bc 3a99 8ebd
000002f0: c547 6abd 213e 2d3d 7e2f a8bc e971 5bbd
00000300: 5115 a6bd 34b4 083d 9baf 6a3c 5cd2 c2bd
00000310: 760d 6ebd febe 3bbe dbf4 8dbd a396 a8bd
00000320: 592b 083d 06e6 843c 0fe7 86bd f123 4fba
00000330: 954d e93a 0a21 bb3d 9b99 88bd ba19 d73b
00000340: e1eb b2bc bd89 e6bc 5355 cf3d 945e 013e
00000350: 25e9 b83d 93fd 923d 8f54 553d 94d0 0d3e
00000360: 8269 09ba 89c7 de3d 488c 8ebc aa92 a83b
00000370: 260e d0bd 5266 a9bd 6bae 01be 1fc3 c5bd
00000380: 43e8 f2bd dc5b fabd 8ae9 f6bd 2337 6ebd
00000390: 74d7 ecbc d7fe d0bb 775c 0a3d a431 d83d
000003a0: db12 43bc d229 04bd 30a5 be3b aabc 333e
000003b0: f82f 473e 5c54 543e 08c2 233e dc57 3d3e
000003c0: 38ae 6c3d b0ef fbbc aecf 193c 9a98 133d
000003d0: eb0d 3a3e 1ca6 56be 5c15 46be 5947 8cbd
000003e0: b99d 6fbd 6174 9fbd 72d4 c8bd 3d61 243e
000003f0: 55ff 94bd bd8b 353e 3481 00be 973b 06be
0.06183675 -0.08538393 -0.027262345 -0.06164832 0.20105836 0.07756005 0.0026669318 0.03187225
0.14276387 0.14899202 0.10991175 0.016227856 0.09731227 0.10128922 0.12088973 -0.21255271
0.001961076 0.15143733 0.11461734 0.06982788 0.18495125 0.3192139 0.14777885 -0.053502277
-0.15987174 -0.01324912 -0.1370667 -0.12371099 -0.03312221 -0.18836927 0.035299208 0.04273012
-0.12349273 -0.16710974 -0.20651728 0.13701262 0.025763702 -0.1154124 -0.18329026 0.005390782
0.08282636 -0.114111036 -0.1531034 0.07424005 0.33363703 -0.0560448 -0.15800202 0.17821126
0.06812225 0.21167621 -0.032329537 0.008211703 0.05069003 0.020677544 -0.0022370364 -0.08749651
-0.004200996 -0.006218116 0.03194261 0.1326958 -0.079148345 0.051185332 -0.06321189 0.0008428016
0.074058264 -0.12358486 0.049827885 0.012280591 0.020547213 0.047310803 -0.14750221 -0.058321528
0.00988403 0.035695743 0.047659043 -0.11288602 -0.0026174218 -0.061301302 -0.0392862 0.15994525
0.025992824 -0.11192062 -0.09518756 0.08734925 0.10380544 -0.12839155 -0.14443314 0.091696456
0.07712341 0.0338794 0.063810825 0.061994795 0.0779551 0.064898275 -0.17861053 0.2630627
0.1837487 -0.091588505 -0.031210257 -0.1561047 0.024764253 -0.0075884294 0.014386811 -0.035300635
-0.19361557 -0.06916407 0.01782744 0.017153991 -0.0022998643 0.1271575 0.05538178 0.083238
-0.10648315 0.029090906 0.1387566 0.06161084 0.036854085 0.13844836 0.17707226 0.1206842
-0.024078526 0.04863154 0.22109415 -0.09837877 0.0106270015 -0.065017946 -0.12037908 -0.025635775
-0.09238712 0.0002922473 -0.14415905 -0.09121238 -0.14844158 -0.16340053 -0.05678999 -0.15940732
-0.16942814 -0.18133819 -0.2421277 -0.19453281 -0.115883484 -0.21353127 -0.18075617 -0.078387134
0.013201087 -0.12638503 -0.15891717 0.0018782612 0.15593 0.10344676 -0.08629305 -0.08790873
-0.10966982 -0.1776002 -0.046146914 0.08667402 0.037510842 -0.08816882 -0.008620011 -0.02013724
0.118063696 0.08630507 0.14085925 0.113040395 0.07514795 0.2627641 0.18376362 0.22133078
0.291006 0.17000915 0.15902762 0.12014739 0.11478943 0.09069912 0.16521937 0.014091168
0.002793243 -0.049032617 0.13633868 0.08378865 -0.026000459 0.0924266 0.06594836 0.048732255
0.016993852 0.079196975 -0.0122611085 -0.069628194 -0.05719735 0.04229558 -0.020530459 -0.05357543
-0.081095345 0.03337498 0.014324094 -0.09512779 -0.058118306 -0.18334576 -0.06931468 -0.08231857
0.033244465 0.016222965 -0.0658704 -0.0007901779 0.001779961 0.09137161 -0.06669923 0.006564346
-0.021840991 -0.02814185 0.10123696 0.12633735 0.09028844 0.07177272 0.052082594 0.13849097
-0.0005241857 0.10877902 -0.017400876 0.005144437 -0.101589486 -0.08271469 -0.12664191 -0.09656357
-0.11860707 -0.12224552 -0.12056263 -0.05815805 -0.02891133 -0.0063780355 0.033779588 0.10556343
-0.011906351 -0.032266445 0.0058180317 0.17552438 0.19451892 0.20735306 0.15991986 0.18490547
0.057783335 -0.03075394 0.009387894 0.036034204 0.18169372 -0.20961803 -0.19344085 -0.06849546
-0.058500025 -0.077858694 -0.09806146 0.16052718 -0.07275263 0.17729087 -0.12549287 -0.13108669

conv2.bias f4 [16]
00000000: 1fa0 00bf bd25 4cbe ab41 ab3f a0a0 2d3f
00000010: 6b7c a33d 5942 9a3d 3e7a 99bd 9a87 43be
00000020: 9bf8 d1be 26cb 04bf b23d f33d 9b8f 2fbe
00000030: 563a 34be 9083 05be 36be 733e 330d fabe
-0.50244325 -0.19936271 1.3379415 0.6782322 0.07982715 0.07532186 -0.07494019 -0.19094697
-0.41009983 -0.5187248 0.11877002 -0.17144625 -0.17600378 -0.13038468 0.23803028 -0.48838195

fc1.weight f4 [120, 400]
00000000: 86d1 ed3a 31e9 45bb ad02 51bd f176 913c
00000010: 5512 343c 424d a4bc 097a 243d 06ae b33b
00000020: dab5 2cbd 2505 d9bc 23bd 9d3c 0bc6 8a3c
00000030: 71b0 07bd 0a1b 843c 7b57 24bd 7ff6 283d
00000040: f255 013d a236 10bd e59e aebc 7be6 063c
00000050: ac76 1b3d b77a 0ebd 1378 23bc 0ac4 10bd
00000060: c734 3dbd 273f 773c 5e17 f53a 8e93 2c3d
00000070: 1225 4e3c 30fa 45bd 8dbc 04bc 904a b2bb
00000080: 1faf 12bd 81bf 86bc b7df 38bc 1c8c 54bd
00000090: 1c68 063d f0f5 3b3d d204 21bd ad1c 32bd
000000a0: 50dc 1f3d 0684 473c 5661 923c 8c14 d2bc
000000b0: 5063 983c 8cd6 f83c 9a4e 64bc 2b3a b9bc
000000c0: 6b04 79bc 798f a2bc 904e 40bc 8840 00bd
000000d0: bc3c 26bd f9ea 48bd d744 bfbc 5334 c03b
000000e0: c44e 47bd 7a75 0bbd 1ae0 473c 5913 7abb
000000f0: 45e1 1e3d b63b 4fbc 9f93 7ebc d34c d0bc
00000100: 0525 ac3b 35a8 43bd 0571 223c 8135 83bc
00000110: 13d0 a63c 70ed 1f3c 35ad fabb 9fa3 323d
00000120: 97a0 033d bc07 0dbc ef22 74bc 0a1f 593c
00000130: ec14 cabc ab2a 05bb 34ec f03c 873c a8bc
00000140: 076d 3dbd 355a 3ebd 562e 763c 1019 cdbb
00000150: 5813 64bc 2381 8c3c 9166 23bd 6078 26bc
00000160: a03f 17bd 2c50 2abc c8de 03bd fc08 f13c
00000170: 1ee3 10bc f319 223d 0426 2ebc 5b20 57bd
00000180: 8ee6 983c 50f1 953c dc90 a7bc ea3c 53bd
00000190: c675 08bd 4dfa 3f3d d46e 29bd 2528 563c
000001a0: 1d12 b53c b93c f13c 7044 c93c 735c 363c
000001b0: e936 7dbc 10be 02bc b723 42bd 6305 85bc
000001c0: 547c 203c 37a5 48bd 765d 3b3d 0b7c e33c
000001d0: 7a4a 863a e315 ad3c 8c57 0f3d 32f7 4d3d
000001e0: dcda e73c 61fb 07bd febb aabc 92e9 47bd
000001f0: 0850 08bd 9aaf 823c 5214 ac3c cf82 8d3c
00000200: 08c3 3f3b a26a b23c 80df d03c fbf7 483d
00000210: 0bc3 bfbc 14f6 c83c 44d0 16bd 33b9 d7bc
00000220: f53f b23c 7810 a7bb 8d35 afbb ca2d 2dbc
00000230: 1bca 3abd 16ff 373d 7ffa abbc 99ee 15bb
00000240: 379d d83c 440b 10bd fd16 81ba 6d1d 36bc
00000250: 4ea6 7a3c 225e 09bc 5a2c 32bd cddf b7bb
00000260: 0b1e 1d3c 7f9c d93b 0505 ba3b b0b2 7fbb
00000270: a4a2 083d 7c5b cebc 51ad 1c3c d7bf 5b3c
00000280: 5721 51bd 4f88 24bc 4e5f 39bc 30bc dcbc
00000290: 6e69 89bc 3542 9d3c 033e efbc 7cb0 7e3b
000002a0: bf01 8c3c 27e4 093d 981c 9a3b 71c1 a4bc
000002b0: 036e ea3c 30a7 53bd 5b09 ffbc c09e 6fbc
000002c0: 8f24 3e3b 1071 0a3d d97a 243d fb56 693c
000002d0: 1781 e6bb a633 1a3d afeb 81bc cf86 24bd
000002e0: 1ae9 ea3c 8f4c 093d 662d 2d3d 0fe1 49bd
000002f0: d4eb 533d 4648 15bd 36fa 0e3d 7840 ac3c
00000300: d33c 17bd a7e1 d3bc 195f 27bc aeee 0c3d
00000310: b917 2c3d 89d7 4dbd 6ae0 b93c afcb 2ebd
00000320: a170 d8bc cf8a 813a 0370 c23c 8c16 7f3c
00000330: 8b25 193c 9a58 5fbc cbed 62bc 20ed 5d3c
00000340: c29d 143d cd7e da3c e11c 6f3c af32 873c
00000350: a207 4abd 8ab9 833c 9a4c 803c 7193 9ebb
00000360: e442 273d 67f2 cd3b 1938 383d 34c6 9d3c
00000370: 7d25 b5bb 00d4 96bc b5bf 333d 0602 43bd
00000380: b605 cbbc 7c99 283d a1be 74bc 278f 393c
00000390: f971 9cbb a0aa acbb 353f 4fbc 4cd4 fabc
000003a0: e70e 873c 1297 3b3d 071e 153d 9ac9 febc
000003b0: cd36 5a3c 2c88 ec3c f46b cbbc 6e73 0bbb
000003c0: c01d 16bd 536b 423c 8dc0 22bc 8083 283d
000003d0: 5737 06bc 2b43 023b 0ff1 293d f9c9 e9bc
000003e0: 6f0e 523d 0403 dbbc 8c2d 43bd 6f9c 7bbc
000003f0: a6e2 63bc 4c5e 0f3d fadb e33c c92c ea3c
0.0018144108 -0.0030198807 -0.051027942 0.017756911 0.010990699 -0.02005637 0.040155444 0.0054833917
-0.042165615 -0.02649171 0.019255226 0.016940137 -0.033127252 0.016126174 -0.04012249 0.041250702
0.031576104 -0.035208352 -0.021316001 0.008233662 0.03795497 -0.034785 -0.009977358 -0.035343207
-0.04619291 0.01509074 0.001869898 0.042132907 0.01258208 -0.0483343 -0.008101595 -0.0054410174
-0.03581154 -0.016448738 -0.0112838065 -0.05189143 0.03281413 0.04588884 -0.039311238 -0.04348438
0.039028466 0.012177473 0.017868679 -0.025644563 0.018602043 0.030375741 -0.013934756 -0.022610744
-0.015198807 -0.019843804 -0.011737481 -0.03131154 -0.040585265 -0.049052212 -0.023348255 0.0058656125
-0.0486591 -0.03404758 0.012199426 -0.0038158505 0.038789053 -0.012648514 -0.015538125 -0.025427258
0.0052534365 -0.047767837 0.009914641 -0.016016724 0.02036289 0.009761199 -0.0076500424 0.043613072
0.032135572 -0.008607801 -0.014900907 0.013252029 -0.02466818 -0.0020319622 0.029409505 -0.020536674
-0.046246555 -0.046472747 0.015025696 -0.006259091 -0.013920628 0.017151421 -0.039892737 -0.010160536
-0.036925912 -0.010395091 -0.032194883 0.02942323 -0.008843211 0.03957553 -0.010629181 -0.05252109
0.018664625 0.018303543 -0.020454817 -0.051571764 -0.033315443 0.046869565 -0.04136546 0.013071095
0.022103364 0.0294479 0.024568766 0.01113044 -0.015454986 -0.007979885 -0.04739734 -0.01623792
0.009795267 -0.048985686 0.04574343 0.02776911 0.0010245584 0.0211286 0.0349956 0.050284572
0.028302602 -0.033198718 -0.020841595 -0.048806734 -0.03327945 0.015952874 0.021005783 0.017274288
0.0029260535 0.021779362 0.025497198 0.049064618 -0.023408433 0.024531402 -0.03681971 -0.026333427
0.021759013 -0.005098399 -0.00534696 -0.010569999 -0.0456029 0.044921003 -0.02099347 -0.002287781
0.026442153 -0.035166994 -0.000984877 -0.011115414 0.015298439 -0.008384259 -0.04349933 -0.005611396
0.009589682 0.0066409702 0.005676868 -0.0039016418 0.03335823 -0.025190108 0.009562806 0.013412437
-0.051057186 -0.010042264 -0.011314226 -0.026945204 -0.016773906 0.019196609 -0.029204374 0.0038862517
0.017090676 0.03366485 0.0047031157 -0.020111771 0.02861691 -0.051673114 -0.03113239 -0.014625251
0.002901349 0.03379923 0.04015622 0.014241929 -0.0070344317 0.037646912 -0.015859453 -0.040167626
0.028675605 0.033520278 0.042279623 -0.0492869 0.051738575 -0.03644588 0.03490659 0.021026835
-0.03692324 -0.025864435 -0.010215544 0.03440731 0.04201481 -0.05025438 0.022690017 -0.042674717
-0.026420893 0.0009883287 0.023735052 0.01556934 0.00934733 -0.013631964 -0.01385064 0.013545305
0.036283262 0.026671791 0.014594288 0.01650366 -0.049323685 0.016079683 0.015661526 -0.0048393537
0.040835276 0.006285 0.044975374 0.01925955 -0.0055281506 -0.018411636 0.043883998 -0.04760935
-0.024782997 0.041162 -0.014938028 0.011325634 -0.004774329 -0.0052693635 -0.012649347 -0.03061881
0.016486598 0.04579837 0.03640559 -0.03110199 0.01331873 0.028873526 -0.02483175 -0.0021278518
-0.036649466 0.011866408 -0.009933603 0.041141033 -0.008191905 0.001987646 0.041489657 -0.02853869
0.051283296 -0.026734836 -0.04765086 -0.015357121 -0.013909018 0.035002038 0.027814854 0.028585808

fc1.bias f4 [120]
00000000: b9bb 1ebd 8669 f53d 78e1 e13d a063 e2bc
00000010: 7928 0cbc 717f ae3c 24a9 8fbb ebc6 4a3c
00000020: 2922 db3d 134c 1dbe 44c7 2a3c 7b83 8a3b
00000030: 04a7 4d3d e570 fcbb bd51 8dbd 32a3 113e
00000040: 476e 7dbd e6fe 4ebd 9986 c23c bd24 09bd
00000050: 1e17 98bd 4781 78bb 3437 913b ea29 daba
00000060: 0324 31bd d2c3 ec3d ca20 a03d bab3 363e
00000070: c4b7 443d 4b97 99bd 653f 803c b315 c5bd
00000080: 0b81 753a 792e 993c 0d13 bdbd 9d16 e2bc
00000090: c49c e3bb ae81 a93d 3392 c53d e9e2 34bd
000000a0: eda3 c6bc 29c0 03bd 490b bd3d c54d 66bd
000000b0: 11bd febc d444 2d3e 2893 cebd 74f6 62bd
000000c0: 1969 1ebd e0ce 353e 64ea c7bc 5077 69bc
000000d0: e77f 6bbc b169 67bd 4651 293d fd25 27bd
000000e0: be34 4d3d 11c3 97bc 8caf 23bb 10f0 efbb
000000f0: 2bad 1bbd 664b f13c 1bd7 00bd 06b3 31bc
00000100: e56d f9bc 3a04 f7bc 464d 493d d791 2ebd
00000110: 7558 19bd 3fac 1b3b d06a 183d d9d7 313d
00000120: ebeb ebbd a41e 483d 11a5 01bd ae69 3739
00000130: e81c 27be 6d68 f73d e9d8 0a3e 01c9 513c
00000140: 2e45 a4bb 2176 823d c64d 6e3b 08c2 8a3d
00000150: 6b2d 543d bb95 01bd 0c47 573e 5ceb 98bc
00000160: fd98 17bd ce3b 0bbc e281 983d 41c9 d6bc
00000170: b6a0 7d3d 71ad 4f3c 06e3 1e3d 9426 9b3d
00000180: cbbe 1e3e e9f2 10be 1c17 883c 2f12 00be
00000190: 86dd ed3b e18a 5c3e 1d2d dbbd e6d7 333c
000001a0: e4dc 603d 695b cf3d 9590 a53e be58 343c
000001b0: cdf4 12bb c885 023c aabf d83d c166 4a3e
000001c0: 308c 2dbd af0e 083e 31fc ea3d 27d0 fcbc
000001d0: 358d 203d 0817 993c 6691 d33c b4f1 053b
-0.038753245 0.119830176 0.11029333 -0.027635396 -0.008554571 0.021301003 -0.004384177 0.012376527
0.10699875 -0.15361051 0.010423485 0.0042270995 0.050208107 -0.0077038878 -0.06900356 0.1422241
-0.061872747 -0.05053606 0.023745822 -0.033482302 -0.07426284 -0.0037918852 0.0044316296 -0.0016644571
-0.043247234 0.11560787 0.07818754 0.17841998 0.048026815 -0.0749956 0.015655229 -0.096232794
0.0009365237 0.018698918 -0.09232149 -0.027598673 -0.006946178 0.082766876 0.09647026 -0.04416171
-0.024248088 -0.03216568 0.09230668 -0.05622651 -0.031096013 0.16920787 -0.100866616 -0.055410817
-0.038674448 0.17754698 -0.024403758 -0.014249638 -0.014373756 -0.05649728 0.041337274 -0.040807713
0.050099127 -0.018525632 -0.002497646 -0.007322319 -0.038006943 0.029454898 -0.03145514 -0.010845905
-0.03044791 -0.030153383 0.04914596 -0.042619552 -0.037437875 0.002375379 0.03721124 0.04341874
-0.11519607 0.048857346 -0.03165156 0.00017491609 -0.1631962 0.120804645 0.13559307 0.012804271
-0.0050131297 0.063701876 0.0036362275 0.0677529 0.051801126 -0.031636935 0.21023196 -0.018666916
-0.037011135 -0.008498145 0.07446648 -0.026219012 0.061920844 0.012675629 0.038790725 0.075757176
0.15502469 -0.14155163 0.016612582 -0.12506936 0.0072590737 0.21537353 -0.10701964 0.010976767
0.054898158 0.10124857 0.3233687 0.011007486 -0.0022423745 0.007966466 0.10583432 0.1976576
-0.04237002 0.13286851 0.11473883 -0.030860974 0.039197166 0.01868774 0.025826167 0.0020438256

fc2.weight f4 [84, 120]
00000000: 9d0f 01bc a90f e63d 4f5a 87bc 807b 213d
00000010: 14c7 213c c6d5 9a3c 5533 603d 2d31 9fbc
00000020: 13ff f83d b6a1 01bd 8ab2 a1bc d7ab cb3c
00000030: 3d6c f8bc 092e 8ebd 8718 72bd 4f85 b3bc
00000040: 698d 6a3d e8c6 32bd b415 58bd 47b6 98bd
00000050: 86cf b73c 1011 d53c 917b 853d 5d03 af3d
00000060: db92 2b3d 4769 9bbd 8aa6 e13d b2f2 b8bc
00000070: 966d b83c 1a2d a1bd 59c6 13bd f752 d0bd
00000080: 42ad 27bd 1535 9a3c 1646 173d 06ea 81bd
00000090: 783a 05be 8e42 bc3d fbad 983d a0f6 e8bd
000000a0: de00 fb3c 2d3b ab3d 87eb 1d3e a4a6 3ebd
000000b0: d2ff 94bd 1a2c cf3c c7fe 86bd 865b 34bd
000000c0: 7453 11bd c663 473d 2814 82bd 6d48 30bd
000000d0: f75d 89bd b64e ffbc dd30 7e3d f7ae 333d
000000e0: e9e0 85bb c169 773a 1ae3 693c e781 3b3d
000000f0: 05e3 e9bc 7e8a 37bd 967c 18bd 19ba 9a3b
00000100: 7679 01bd 8b34 ab3d 9218 9cbc e1c0 a23d
00000110: a848 b03d 1614 733d 9f3e 99bd 4b8d 3c3d
00000120: 04f5 503c 6794 e83c 969f 41bd 2e4f 3ebd
00000130: 9e49 373b 8d8c ad3d 6346 b5bc bf95 523d
00000140: 4525 d73c cf90 83bd 99a6 8d3d 2c9c 64bd
00000150: 4fff 2abd 8759 57bd 7a3f 4d3a b604 adbc
00000160: 6b3a d93c 16ea 283d b1bd 7d3d 633a 99bd
00000170: bd05 0d3d 1c1c dc3d c218 69bd 6939 553d
00000180: 4bcc a83d 8fc9 c13c 4a37 3cbd 5bcb d8bd
00000190: 8c28 e23c 1131 8b3d fa8f cebd 4653 763d
000001a0: 46d8 563d 9940 0c3d c3de 233e 777f b73b
000001b0: ba13 03bd cae6 c6bc 7f11 1fbc 0930 913c
000001c0: a509 553d c284 f53c 53ea 693d 517a e1bd
000001d0: e541 b0bd 16db 873c 5cbe 97bc 0616 d1ba
000001e0: 7eb7 303c 2f24 6e3c f570 75bb c835 39bd
000001f0: 0c05 0d3e ca7a 36bc 1df7 1b3d ad58 abbc
00000200: eb07 80bd 964c 06bd 2aa5 51bc a00c c13c
00000210: ef74 8d3d 5968 a63d 66e4 d8bc a07a 983d
00000220: f7c8 97bc 8dfd 98bd 9022 213d 2d0c 37bd
00000230: 0255 cc3d a236 8c3d 3aec 043b 6dd7 83bb
00000240: a102 a63c 34a9 633d fefb 5a3d b7dc a2bd
00000250: 5596 e8bd 9e9d a7bd 528d 80bc 1fc8 3bbc
00000260: 1cec 06bd b6cb 883c 5535 7d3d a469 223d
00000270: 50ae a4bd 5f46 dfbd a8c7 b4bc 8597 cabc
00000280: a413 bdbd cf47 ac3d 87da 8b3d ab5d a0bd
00000290: d078 02bd 68f1 1abd 2aa0 9d3d 2b03 823d
000002a0: c673 c43c 1d1b 9cbc d137 bb3d c59e 81bc
000002b0: a90b b8bd 5c60 89bd 32f7 5abc 0f52 43bd
000002c0: 26b4 a5bd c06a b93d 0eca a9bd 821d c0bd
000002d0: 88d1 47bd 9e1d a53b 5c2b 3d3d 535f 7bbd
000002e0: df97 c03d 58af 923a 3fa3 803d 5368 2f3d
000002f0: 286d e73c 818e 6c3c 829a 7f39 f0fb 703d
00000300: f3d6 49bd 8639 77bd 84ec 933c 4e2e 053d
00000310: f0b0 453d b13b a1bd 2365 43bd 3d10 95bd
00000320: bdd8 4abc eb40 fe3c ccdd 13bd d3f8 c3bc
00000330: 6530 75bb 2a21 af3c cde9 ea3c ea8f 0dbd
00000340: 10cc bfbd b92d 253c f296 553d 80b4 e73d
00000350: 597c ee3c 8b27 21bd 84de 723d b72b f1bc
00000360: f407 b4bb d153 00bd d619 bf3d 53bd 583c
00000370: e799 9bbd a83c 553d 898d 23bd d14b a4bb
00000380: e4f1 933d 24bf d5bc 8f97 85bd 1418 293d
00000390: a52c 5e3c 16e1 293c 0b73 6a3d ac63 0e3e
000003a0: a1cd a5bd d11d a6bd 07ff c83d 4c9d 35bd
000003b0: 6e9c 52bd b86e 1ebd f067 c5bc a498 393d
000003c0: e757 9f3d ca20 84bd f4a0 e03b 8d6e 70bd
000003d0: baac cd3d b0b0 debd f456 fdbd 97f6 86bb
000003e0: ceee 3fbc e977 013e 6963 fd3c 0cf0 913d
000003f0: 5781 97bd 60fb b2bd 16e9 a83c db39 a3bd
-0.007877258 0.11233456 -0.016522555 0.03942442 0.009874124 0.018900763 0.054736454 -0.019432629
0.121580265 -0.03164836 -0.019738454 0.024862213 -0.03032505 -0.06942374 -0.059105422 -0.021914152
0.057263765 -0.043646723 -0.052755073 -0.07456642 0.022437822 0.026009113 0.06517709 0.08545563
0.0418881 -0.075884394 0.11018093 -0.022576664 0.022513192 -0.078699306 -0.03607783 -0.10172074
-0.040936716 0.01882414 0.036932074 -0.063434646 -0.13010585 0.09192382 0.07455059 -0.11375165
0.030640062 0.08360896 0.15421878 -0.04654564 -0.07275356 0.025289584 -0.06591564 -0.044032596
-0.035479978 0.048679136 -0.06351501 -0.04303782 -0.067073755 -0.031165462 0.06205832 0.04386803
-0.0040856493 0.0009438061 0.014275337 0.04577818 -0.028550634 -0.04480981 -0.03722819 0.0047218916
-0.031609975 0.08359631 -0.019054685 0.07946945 0.08607608 0.059345327 -0.07482647 0.046033185
0.012753729 0.028391076 -0.047271334 -0.04646223 0.0027967463 0.084740736 -0.02212829 0.05141234
0.026262889 -0.064241044 0.069165416 -0.055813 -0.041747387 -0.052575614 0.0007829588 -0.02112041
0.026517114 0.041238867 0.061948482 -0.074818395 0.0344293 0.10747549 -0.056908377 0.052056704
0.08242091 0.023655681 -0.045951165 -0.10585662 0.027607225 0.06796468 -0.10086055 0.06013801
0.05245235 0.034241293 0.16002946 0.005599912 -0.032001235 -0.02427997 -0.009708761 0.0177231
0.05201115 0.02997053 0.057108235 -0.11009658 -0.086063184 0.01658396 -0.018523388 -0.0015951998
0.010785935 0.014534994 -0.003745136 -0.045217305 0.13771456 -0.011137674 0.038077462 -0.020916307
-0.0625151 -0.03278788 -0.012795726 0.02356559 0.06907069 0.081253715 -0.026476096 0.07445264
-0.018528445 -0.07470236 0.039339602 -0.044689346 0.099771515 0.06846358 0.0020282404 -0.0040234835
0.020264925 0.055581287 0.053462975 -0.07952254 -0.113567986 -0.0818436 -0.015692387 -0.011461287
-0.032940015 0.0166987 0.06181844 0.039651528 -0.0804106 -0.10902094 -0.02206786 -0.024730453
-0.09232262 0.08412134 0.0682879 -0.07830366 -0.031853497 -0.03782788 0.076965645 0.063482605
0.023980986 -0.019055897 0.091415055 -0.015822778 -0.08986599 -0.06707832 -0.0133646 -0.04768568
-0.08091001 0.09053564 -0.08290492 -0.09380628 -0.04878381 0.005038931 0.04618393 -0.061370205
0.09403967 0.0011191173 0.06281137 0.0428241 0.028250292 0.014438272 0.00024376254 0.058834016
-0.049277257 -0.060357593 0.018057115 0.032514863 0.048264444 -0.07872713 -0.047703873 -0.07278488
-0.012380776 0.031036815 -0.036100194 -0.02392236 -0.0037412879 0.021378119 0.028675938 -0.034561075
-0.09365094 0.010081702 0.052145906 0.113137245 0.029112028 -0.03934435 0.05929424 -0.02943979
-0.005494112 -0.031329934 0.093311 0.013228732 -0.07597714 0.0520598 -0.0399299 -0.005013921
0.07223871 -0.02609212 -0.06523048 0.04128273 0.013560449 0.010368606 0.05723862 0.1390521
-0.08095861 -0.08111156 0.098142676 -0.044339463 -0.051418714 -0.03867981 -0.024097413 0.045311585
0.07780438 -0.064515665 0.0068551246 -0.05869918 0.100427106 -0.10873544 -0.123701006 -0.0041187513
-0.01171465 0.12643398 0.030931192 0.071258634 -0.073977165 -0.08739352 0.020618957 -0.079700194

fc2.bias f4 [84]
00000000: bee4 823e 336f 82bd 3b89 32bd 3358 633d
00000010: d9bd 5ebd 8f41 673d d1e6 8e3d 1389 0bbd
00000020: 3b7b dcbd 21f1 99bd b46f 96bd 22ef 2f3c
00000030: 7d5a 003c 15e5 6abd 8477 0b3d 480f 323b
00000040: cf7f 19bd 0125 903e 34be 063e bf50 9bbd
00000050: 5119 3d3e e93f 603e cf70 02be 6431 4a3e
00000060: 2690 adbd c9cd 893d aafb 2fbd 1a90 5bbd
00000070: 6717 ef3d 4ce8 313e 7df2 a5bd 686a 2fbd
00000080: e7aa 073f b5cf 153e 2f34 4d3e c553 193d
00000090: 58b5 743e 1e4b 6fbd 3c06 dd3c 0dd7 8b3b
000000a0: 7d27 26bd c7bc 22bd 6196 ba3d 9aec bf3d
000000b0: dd7e 1b3e 5f72 50bd 5f12 ba3d d9e1 14be
000000c0: 7b6b 583c 7fb4 aa3e b996 2d3e 3ab5 70be
000000d0: 36cb 0dbd 8803 bf3b 5b76 63bd 7681 e4bb
000000e0: 21af b7bd 700e ccbb 8d08 973d 34f0 813e
000000f0: bd01 113e 1b78 363c 9119 cb3d bcd1 9dbd
00000100: 9441 51bd fe95 e03c 1550 80bd 3fae f6bd
00000110: c46d db3c 5ff2 013e 19f1 d33c f337 053e
00000120: 879f 163d 0cf1 8b3e 077e 863e 1812 373c
00000130: 013f 51bc 1c81 90bd 9bf2 863d cce5 87bd
00000140: 5e3e 043e 8bf4 be3d 2bfa 32bd cd34 b4bd
0.2556514 -0.06368866 -0.043587904 0.055504035 -0.05438027 0.056459006 0.069776185 -0.03406627
-0.10765692 -0.07516695 -0.073455244 0.010738166 0.007834074 -0.057347376 0.034049526 0.0027169753
-0.037475403 0.28153232 0.13158494 -0.075837605 0.18466689 0.2189938 -0.12738346 0.19745404
-0.0847476 0.067287035 -0.042964615 -0.053604223 0.116743855 0.1737377 -0.081028916 -0.042826086
0.5299515 0.14630015 0.20039438 0.037433404 0.23897302 -0.058421247 0.026980512 0.0042675794
-0.040565003 -0.039730813 0.09110714 0.093713 0.15185113 -0.050890323 0.09085535 -0.14539279
0.013209219 0.33340833 0.16952027 -0.23506632 -0.034617625 0.0058292784 -0.055532794 -0.0069734408
-0.0896895 -0.006227307 0.07374678 0.25378573 0.1416082 0.011137034 0.09916986 -0.07706019
-0.05108793 0.027415272 -0.062652744 -0.120449536 0.026785739 0.12690113 0.0258718 0.13009624
0.03677323 0.27332342 0.26268026 0.0111737475 -0.012771369 -0.07055876 0.06589242 -0.06635627
0.12914416 0.093239866 -0.04369561 -0.087991334

fc3.weight f4 [10, 84]
00000000: 07a7 253e 6592 db3d ce75 e7bd 246a 5b3d
00000010: 22df 7e3d 0c4d 4bbd fbbb fdbd 1fe7 2dbd
00000020: 655e 0cbe c0e7 2a3d 6564 8dbd 36d7 1fbd
00000030: 8156 c03d 24f4 d13d 4e7a 82bc 505f d0bd
00000040: 3096 2a3e e7be 0bbe bcb7 fd3d 42bd 5e3d
00000050: 0bdd 74be 1c17 383e 3913 de3d 191d 823e
00000060: fb19 9f3d faa0 0bbe fb05 7fbd 71d4 873d
00000070: 85ac 383e 02c4 45be 2c92 07bd 117e 8e3d
00000080: 8077 b8be fa5d 893e 6856 27be 9698 b2bc
00000090: 6d49 a73d 2386 003e 6d80 a8bb ef9b 0a3e
000000a0: 290c 183d 95ce 3c3e 3cbb 02be 1cfb 063e
000000b0: 57c1 8a3e 1500 423d 39c3 edbc 6205 b43d
000000c0: 0ccd 033d d98b 943e 5b33 2cbd 1a93 11bd
000000d0: 9403 163e 6570 463e 75cb 13bd 7a55 403e
000000e0: b204 d7bb 30cc 303e ae81 67bc 7b86 b2bd
000000f0: 8437 5f3c ec1e aabd 5ae6 1c3b b7d1 94bd
00000100: 8b29 3bbd 0339 d2bd 5f02 833d f733 e0bc
00000110: 8de2 35bc bb6c 933e dfa3 dcbc 2f10 a5bd
00000120: ac64 95bd fba6 403c 3cbb 9abc 12ca 863d
00000130: e058 b0bd 7822 b6bd 65b9 f5bd 0c6d f8bd
00000140: 84ae 223e 4bf5 0fbe 3b13 db3c 9593 2c3e
00000150: 83f7 6bbe 3e43 a1bb 5439 e0bd b95b 15bd
00000160: aafb a53d 9762 ab3d 9a0d b03c 180a b73d
00000170: 5353 963e 55a8 52be 384f 1c3d d027 04be
00000180: 49f6 92bd d3a9 0ebb 68f2 abbd e5ec 403d
00000190: 8167 863e 9d5a c3bd a3c4 60bc 3850 9fbd
000001a0: 560a 1cbe 3680 89be 5131 cb3d 8661 54bd
000001b0: ebde 1d3e 45b9 dc3d 1900 6f3d 0938 f63d
000001c0: e2b7 08be 4078 ee3d 8ffe cdbc 9c3d 103d
000001d0: 9273 a9be 6f5a 92be 5699 a6be 8750 d03c
000001e0: 39b9 083e 0bee 473e a2ef d23d 3446 363d
000001f0: ccad 5b3c 311c 87bd b377 173e 831c 9d3e
00000200: 0d50 2bbe 8eb2 883c 0970 9cbd 09ed 6c3e
00000210: 9b37 ac3e 5dba 0a3e 7780 78be 7fa8 003d
00000220: 6891 7e3e bf01 b73d 0128 72bc 9c58 0fbe
00000230: 5bdd b63d ffd8 873d 4ceb 03be 6c17 28bd
00000240: ffdf 063d f9a2 64be 3d0a 7c3e a443 20bd
00000250: 20a1 6fbd 353e 9b3d dd19 973d 9323 263e
00000260: a789 b4bb 594b 4b3e 90e6 09be e5d2 633d
00000270: 2a8b 443b 3da2 86be fadd a43d 65a5 03be
00000280: a372 d33b aa80 e73d 9de7 223d 145c c8bd
00000290: 1740 96bd 9205 c53d 92f4 f83b 6ce5 59be
000002a0: afdc 1f39 105a e23d 0206 d0bd 9a2c 483e
000002b0: c744 ae3d 08b6 0ebe 2a61 0bbe 0fe4 0ebe
000002c0: 6f0e d63d 6938 6cbd 4690 023e c2f4 c2bc
000002d0: 9c11 bb3d 469a 253d 0c2e 11bd 8bad 613d
000002e0: 1858 e8bc c4eb a23d 4a55 893e 274c 35bd
000002f0: 71ea 533b b495 b83e 4f42 993e 3809 87bd
00000300: 2f03 1fbe 682c a33d c08c 73bc 6784 2a3e
00000310: d654 0c3e b0b9 7c3c 593a b53d 1072 2a3c
00000320: db1a 9f3e 41b4 3b3d 0e7c 963c 91ed f83d
00000330: 62e1 cdbd cadb f83c d66a 70bd 525e 95bd
00000340: 0c7b c93d f391 51bc ac14 853b 4fd4 12be
00000350: 87c8 703e c5d1 afbc 31ad 31bc b571 b7bc
00000360: a185 28be 4807 633d aaaa 693e 0099 8bbd
00000370: 4318 6f3d ff5c 98bd 96b8 e6bb 9c74 353e
00000380: e334 743d cec4 003e 7c2c 533e d686 4dbd
00000390: 617b dcbd 81bf 0b3e c538 3bbd 68be 52bd
000003a0: 32d2 1d3d f93e 49bc 346b a1bb 6bb8 76bc
000003b0: 2e8d 53be f481 7d3d a282 fa3d ed55 94bd
000003c0: 4ce1 0dbd fa27 613e b207 893e 36d3 08bd
000003d0: 105c b23d e539 10be 0238 63be d2e4 ad3d
000003e0: 36bf 3d3e 2d90 693d 9b99 bdbd d06e f4bb
000003f0: 2c74 0d3e 7b1a 86bd 31e8 36bd 5e48 e33c
0.16176997 0.10721282 -0.11301766 0.05356802 0.062224515 -0.049634025 -0.1238937 -0.042456742
-0.13707884 0.04172492 -0.06903914 -0.0390236 0.09391499 0.10251644 -0.01592746 -0.101744294
0.16658854 -0.13647042 0.1238856 0.05437971 -0.23912446 0.17977566 0.1084351 0.25412825
0.07768627 -0.13635626 -0.062261563 0.06632317 0.18034561 -0.19313052 -0.033098385 0.06957639
-0.3602867 0.2682951 -0.16341555 -0.021801274 0.08168302 0.12551169 -0.0051422627 0.13536046
0.03712097 0.1843818 -0.12766737 0.13181728 0.27100632 0.04736336 -0.029023753 0.08790089
0.03217797 0.29012945 -0.042041164 -0.035540678 0.14649802 0.19378813 -0.036082704 0.18782607
-0.006561839 0.17265391 -0.014130039 -0.08717056 0.013624076 -0.08306679 0.0023941011 -0.072665624
-0.045693915 -0.1026478 0.063969366 -0.027368529 -0.011101377 0.28793892 -0.026933609 -0.080597274
-0.07294592 0.011758561 -0.018888108 0.065815106 -0.086107016 -0.08893293 -0.11998252 -0.12130174
0.15886885 -0.14058416 0.026742568 0.16853173 -0.23043637 -0.004921346 -0.109484345 -0.036464427
0.08104642 0.08368414 0.02149086 0.08937472 0.29360446 -0.20572026 0.038161486 -0.12905812
-0.071758814 -0.0021768704 -0.08395845 0.04710092 0.26250842 -0.095387675 -0.013718757 -0.077789724
-0.15238318 -0.2685563 0.09921516 -0.051850818 0.15417068 0.10777525 0.058349703 0.120224066
-0.13351396 0.116440296 -0.025145797 0.035215005 -0.33095986 -0.2858462 -0.3253886 0.025429023
0.13351907 0.195244 0.102996126 0.044500545 0.013408136 -0.06597174 0.14791755 0.30685815
-0.16729756 0.016686704 -0.076385565 0.23137297 0.33636174 0.13547654 -0.24267755 0.03141069
0.24860156 0.0893588 -0.0147800455 -0.13998646 0.08928939 0.066331856 -0.12882727 -0.04103796
0.032928463 -0.22327794 0.2461328 -0.039127007 -0.05850327 0.075802244 0.0737798 0.16224508
-0.0055095735 0.19852962 -0.13466859 0.055621047 0.0029990175 -0.26295653 0.08050151 -0.12856062
0.0064528747 0.113038376 0.039771665 -0.097831875 -0.07336443 0.09620203 0.0075975144 -0.21278924
0.00015245633 0.11052334 -0.10157396 0.19548264 0.08509212 -0.13936627 -0.13611284 -0.13954185
0.10451972 -0.057670984 0.12750348 -0.02379835 0.09134218 0.04043033 -0.035444304 0.055097144
-0.028362319 0.07955125 0.26822883 -0.044262078 0.0032335783 0.36051714 0.29933402 -0.06593555
-0.15528558 0.07967454 -0.0148651 0.1665207 0.13704237 0.015425131 0.088490196 0.010403171
0.31075177 0.0458262 0.0183697 0.12154687 -0.10052754 0.030378241 -0.058695637 -0.07293381
0.098379225 -0.012791145 0.004061302 -0.14338802 0.23513995 -0.02146233 -0.010844515 -0.022393087
-0.16457225 0.055426866 0.2281901 -0.06816292 0.058372747 -0.074396126 -0.0070410473 0.17720264
0.05962075 0.12575075 0.20622438 -0.050177418 -0.1076572 0.13647272 -0.045708437 -0.051451117
0.038530536 -0.01228308 -0.0049261097 -0.015058617 -0.20659325 0.06189151 0.122319475 -0.072429515
-0.034638688 0.21987906 0.26763684 -0.03340455 0.08708966 -0.14084585 -0.22189334 0.0849091
0.18529972 0.057022262 -0.092578135 -0.007459499 0.13813847 -0.065480195 -0.04465503 0.027744468

fc3.bias f4 [10]
00000000: 29fc 7cbe cc41 e2be 7034 053e e1a5 b93e
00000010: e661 003f 8293 23be 2903 863e b274 75be
00000020: 9015 933e c625 8ebe
-0.24705566 -0.44190824 0.13008285 0.36259368 0.5014938 -0.15974239 0.26174286 -0.23970297
0.28727388 -0.27763194
